weights/SRGFS/X3/SRGFS-S_inference.pth (torch, 111132 bytes, 117 tensors)

feature_extra.0.weight f4 [16, 1, 3, 3]
0	0xbf5c00ee	-0.8593892
1	0xbfdfaffe	-1.7475584
2	0xbfc561fc	-1.5420527
3	0x3ee42ca6	0.44565314
4	0xbf605688	-0.87632036
5	0xbb3f6540	-0.0029204637
6	0xbe8b6bf4	-0.272308
7	0x3f20de36	0.62839067
8	0x3ebe42ab	0.3716024
9	0xbe9fc4dd	-0.31204882
10	0x3f5c10c1	0.85963064
11	0xbefd4426	-0.49466056
12	0xbe1f3288	-0.1554662
13	0xc07bc892	-3.9341168
14	0x3eb9c5dd	0.3628377
15	0x3dcb5052	0.09927429
16	0x407bbf26	3.9335418
17	0xbe8ab554	-0.27091467
18	0xbdde97ad	-0.108687736
19	0x3e4a5bed	0.1976163
20	0xbcb6e060	-0.022323787
21	0x3f04fce5	0.51948386
22	0xbfffafdf	-1.9975547
23	0x40188022	2.3828206
24	0xbd2bdc3f	-0.04195809
25	0xbe9d2b44	-0.30697072
26	0x3e9d917a	0.30775052
27	0xbf96ff74	-1.1796708
28	0xbe916e0f	-0.2840428
29	0xbfb91597	-1.4459714
30	0xbebf07d8	-0.37310672
31	0x3df32c0a	0.11873634
32	0x402375c4	2.5540628
33	0xbe58a89a	-0.21158066
34	0x3f16417a	0.5869366
35	0x3e4a1b4a	0.19736972
36	0xbcb45ed8	-0.022017881
37	0xbd21ba76	-0.039484464
38	0xbdda093c	-0.106462926
39	0x403239f7	2.784788
40	0xc00f92b2	-2.2433286
41	0x3f11eca1	0.5700169
42	0x3d96dd54	0.07366434
43	0x3e649d6e	0.2232568
44	0xbe89e4e2	-0.26932436
45	0x3f2054c2	0.6262933
46	0xc0462d09	-3.0964987
47	0x3e5bbeb7	0.2145947
48	0xbf88bbc2	-1.0682299
49	0x401db644	2.4642496
50	0xbd68f7d8	-0.056876987
51	0x3ebd8f00	0.37023163
52	0x3ee54077	0.44775745
53	0x3d054cb7	0.032543864
54	0x3d030302	0.03198529
55	0xbfda2704	-1.7043157
56	0x3f04d98a	0.5189444
57	0x3fbb1cca	1.4618161
58	0xbf9d5470	-1.2291393
59	0xbe8822ef	-0.26589152
60	0xbe337d9e	-0.17528388
61	0x3eb12496	0.34598225
62	0x3eb1ac2a	0.34701663
63	0xbe1565a6	-0.14589557
64	0x3e674792	0.22585896
65	0xbde103d2	-0.10987057
66	0x400e3a2a	2.2223
67	0xc00905b6	-2.1409736
68	0x3e98eafe	0.29866785
69	0xbc8ba24c	-0.017045163
70	0xbefc2695	-0.49248186
71	0x3d4ecee8	0.05049029
72	0x3efe8a9a	0.4971512
73	0xbf1e22fa	-0.6177212
74	0xbd94cab0	-0.07265222
75	0x3fb8eb39	1.4446784
76	0x401888d6	2.3833518
77	0xc04444af	-3.066692
78	0x3f0f0b0f	0.5587625
79	0xbf1451de	-0.5793742
80	0xbd4eb4da	-0.050465442
81	0x3f55091e	0.83217037
82	0x40444c53	3.0671585
83	0x3f02b63b	0.5105931
84	0xbf114cf3	-0.5675804
85	0xc087b3fd	-4.240721
86	0x3e408d86	0.18803987
87	0xbd6044f1	-0.054753248
88	0x3f781efd	0.96922284
89	0xbf095ecf	-0.5366029
90	0x3deec752	0.11659111
91	0xc0225486	-2.536409
92	0x3daa7996	0.08323972
93	0xbe965bea	-0.29367
94	0x40015ffa	2.021483
95	0x3eb48563	0.35258016
96	0x3dbd2036	0.092346594
97	0x3e882cbc	0.2659663
98	0xbe452e6c	-0.1925599
99	0xbdafcb3d	-0.085836865
100	0x4065fac2	3.59343
101	0xbf0f34b5	-0.559398
102	0xbf016c28	-0.5055566
103	0xc00b5b73	-2.1774566
104	0x3fd85687	1.6901406
105	0xbe883eca	-0.26610404
106	0xbf460756	-0.77354944
107	0xbf45b90e	-0.77235496
108	0x3e8af850	0.27142572
109	0xbe949107	-0.29016897
110	0xbd834b6c	-0.0641087
111	0xbf397f72	-0.7246009
112	0x3fdb03e7	1.7110566
113	0x3c1dcfa0	0.009632021
114	0xbe05f8f1	-0.13083245
115	0xbfa74456	-1.306773
116	0x3d7551da	0.059892513
117	0xbe82edf8	-0.2557218
118	0x3f96e7c6	1.1789482
119	0xbeb58a02	-0.35456854
120	0x40607464	3.507104
121	0xc0a29af2	-5.081414
122	0x3f1bedc0	0.6090965
123	0xbee4d5f4	-0.44694483
124	0x3eaceb02	0.33773047
125	0xbda2031f	-0.079107516
126	0xbd0689aa	-0.03284613
127	0x3f1d61bf	0.61477274
128	0x3e10dccd	0.14146729
129	0x3e2b237c	0.16712755
130	0xc05a5ce7	-3.4119203
131	0x3e860144	0.2617284
132	0x3efd1660	0.49431133
133	0x403c8262	2.945458
134	0x3f1e3754	0.61803174
135	0xbf5d72ca	-0.8650328
136	0xbfcb0c7e	-1.5863187
137	0x3e8b1122	0.2716151
138	0xbfe882f8	-1.8164968
139	0x40b2dfdc	5.5898266
140	0x3e8a804b	0.27051005
141	0x3ba67c70	0.005080752
142	0xbe154298	-0.14576185
143	0x3e0e2d3d	0.13884445

feature_extra.0.bias f4 [16]
0	0x3d752cf6	0.05985733
1	0x3e8146db	0.2524937
2	0x3e2d88c1	0.16946699
3	0x3e92bf86	0.28661746
4	0xbc59d1ae	-0.01329462
5	0x3e5e8847	0.21731673
6	0xbf68fc6d	-0.9101017
7	0x3e31354c	0.17305487
8	0x3c032bba	0.008006031
9	0x3ec1e34b	0.37868723
10	0xbd21b6a2	-0.039480813
11	0x3e94c2d5	0.29054895
12	0x3ccad31c	0.024758868
13	0x3c23650b	0.009972821
14	0x3e691b5c	0.22764343
15	0xbf35d23f	-0.71023935

feature_extra.1.weight f4 [16]
0	0x3da89736	0.08231966
1	0x3ee7c401	0.45266727
2	0xbe90a186	-0.28248233
3	0x3f818176	1.0117633
4	0xbec554bd	-0.38541213
5	0x3f145ae9	0.5795122
6	0x3ea92ac5	0.33040443
7	0x3e979cb9	0.29611757
8	0x3f8445a2	1.033375
9	0x3edab0c6	0.42712992
10	0xbedbf068	-0.42956853
11	0x3f3355a3	0.70052546
12	0x3e06be96	0.1315864
13	0x3eb93088	0.3616984
14	0x3e9793d8	0.29604983
15	0x3f806efa	1.0033867

fnl_conv.0.weight f4 [9, 16, 3, 3]
0	0x3c2def77	0.010616175
1	0xbc8284a4	-0.015932389
2	0x3b8491e8	0.0040457137
3	0xbccf7a1a	-0.025326777
4	0xbbcce8dc	-0.006253345
5	0xbb7a5c19	-0.0038201867
6	0x3b4d823c	0.0031358143
7	0x3b0ab08c	0.002116236
8	0x393e527c	0.0001815054
9	0xbbb5fb48	-0.0055536367
10	0xbc735e8c	-0.014854085
11	0x3b037ba6	0.0020062714
12	0xba8d07ee	-0.001075981
13	0xb9d4ee82	-0.00040613493
14	0xba40c1c9	-0.0007353095
15	0x3a273106	0.00063778495
16	0xb991eeea	-0.0002783456
17	0x394453fa	0.000187233
18	0xbc4af582	-0.012387635
19	0xbc5a809a	-0.013336325
20	0x3b81a480	0.0039563775
21	0xbc29dd2a	-0.010367671
22	0xbc0a11f8	-0.008427136
23	0x3bcd2a68	0.0062611587
24	0xbb485c09	-0.0030572435
25	0xbaf283c6	-0.0018502406
26	0x3a787c78	0.00094789965
27	0xbb952231	-0.004551195
28	0xbb9f0782	-0.00485319
29	0x3961120b	0.00021464394
30	0x3bcd681e	0.0062685153
31	0x3d08120a	0.03322033
32	0xbbc365a2	-0.0059630433
33	0xbbe2764e	-0.0069110757
34	0xbc12b166	-0.008953428
35	0xbb62c873	-0.003460434
36	0x3abe7df4	0.0014533387
37	0x3a8e85bc	0.0010873596
38	0xb9cb28c4	-0.0003874955
39	0x38fad820	0.000119611854
40	0x3c96194f	0.018322615
41	0x3c32bad0	0.010908797
42	0xbabc5e02	-0.0014371278
43	0xbb0984f9	-0.00209838
44	0xbb08aade	-0.0020853798
45	0xbad0463a	-0.001589007
46	0xbbd77380	-0.006575048
47	0x3a7ade7a	0.0009569895
48	0x3c2a2adc	0.010386195
49	0x3cf21fe4	0.029556222
50	0xbc6d5758	-0.014486156
51	0x3b1f916d	0.0024348155
52	0xbc2c9c14	-0.010535259
53	0xbb199570	-0.002343502
54	0xbce4507f	-0.027870415
55	0xbd38039c	-0.044925317
56	0x3c3eb81c	0.011640575
57	0xbd1b47c0	-0.037910223
58	0x3d20356a	0.03911344
59	0x3bdb7b2d	0.0066980333
60	0x3ba27a20	0.004958406
61	0x39afe78c	0.00033551117
62	0x3bcc5f38	0.006236937
63	0xbc00f694	-0.007871289
64	0x3c892168	0.016739562
65	0xbba65c7b	-0.0050769425
66	0xbb9b8446	-0.004745993
67	0x3c1ccb56	0.009569963
68	0xbbaee37e	-0.005337178
69	0x3ab26594	0.0013610595
70	0x3b38b9cc	0.0028186915
71	0x39163cc0	0.00014327746
72	0xba346705	-0.0006881806
73	0x3cbbd898	0.022930428
74	0x3b4d7602	0.0031350856
75	0x3d070ce3	0.032971274
76	0x3aa011d2	0.0012212342
77	0xbb7cafdb	-0.0038556966
78	0xbc1d6585	-0.009606724
79	0xbc4969c2	-0.012293281
80	0x3a0a89b8	0.0005284804
81	0xbb04548a	-0.002019199
82	0xbc2131ce	-0.0098385345
83	0x3aa92139	0.0012903578
84	0x3c0d3e18	0.008620761
85	0x3d1ab115	0.037766535
86	0xb9036fd0	-0.00012534787
87	0xbba68776	-0.005082066
88	0xbb6242e1	-0.0034524726
89	0xbb05e6a4	-0.0020431662
90	0xb8dcbd6a	-0.000105256986
91	0x3a277ee7	0.00063894544
92	0xb99daecf	-0.00030075616
93	0x3ae5d069	0.0017533425
94	0xbbff8994	-0.007798383
95	0x3b5ed120	0.003399916
96	0xb95bb796	-0.00020953859
97	0x3b05edc0	0.00204359
98	0x3a8887d8	0.0010416461
99	0xba210def	-0.0006143739
100	0x3c13f33a	0.009030158
101	0x3acb71d2	0.0015521592
102	0xbbd231f9	-0.0064146486
103	0xbc199ef8	-0.00937628
104	0x3b9eb76a	0.004843642
105	0x3c00d4f2	0.00786327
106	0x3bf817ea	0.00757121
107	0x3b56d032	0.0032777903
108	0xbb90fa75	-0.004424388
109	0x3b20352a	0.002444575
110	0xb99d9cc0	-0.0003006216
111	0xbc1b53dd	-0.009480444
112	0x3c92106e	0.0178301
113	0xbbf8d181	-0.007593334
114	0x3b0a5dbc	0.0021113
115	0xba98673f	-0.001162745
116	0x3af2fd26	0.0018538579
117	0x39d12378	0.00039890013
118	0xbbc8e834	-0.0061311964
119	0x3aa44c15	0.0012534881
120	0xbb30dfd5	-0.0026988883
121	0xbc76a96c	-0.015055042
122	0x3c83de15	0.016097108
123	0xba83af14	-0.0010046684
124	0x3bdaa46c	0.0066724326
125	0xbb76f927	-0.0037685127
126	0xb9eec404	-0.0004554094
127	0xbc06115c	-0.00818285
128	0x3b62592e	0.0034538019
129	0xbc41633e	-0.011803446
130	0xbcc28fac	-0.023750149
131	0x3c1f02ca	0.009705255
132	0x3be96bc3	0.007123442
133	0x3c82a3c4	0.01594723
134	0xba4d258a	-0.0007825723
135	0x3b4a90c0	0.0030909032
136	0x3ca6f800	0.020381927
137	0x3a9605b3	0.001144579
138	0x3be1a074	0.0068855826
139	0xbc43f78d	-0.011960876
140	0xbc8c1941	-0.017101886
141	0xbaf0016a	-0.0018310968
142	0xbc2f8b63	-0.010714385
143	0x3b1ef4ca	0.0024254792
144	0xbac29836	-0.0014846388
145	0xbbfca122	-0.007709638
146	0x3a815d6b	0.000986976
147	0x3a563920	0.00081719644
148	0xbcb1c76a	-0.021701533
149	0xbb23c1f2	-0.0024987427
150	0x3af354de	0.0018564721
151	0x3bc4d444	0.0060067493
152	0x39b5a8f3	0.00034648887
153	0xba0829c9	-0.0005194215
154	0xbcaadfad	-0.02085861
155	0x3a80a091	0.0009813478
156	0x39cc02a4	0.0003891188
157	0xbb07ef92	-0.002074216
158	0xba233d68	-0.0006227107
159	0xb99bdeaa	-0.00029729801
160	0xb9c89ab0	-0.00038262224
161	0x39e18eae	0.0004302165
162	0x3ad0e0ec	0.0015936173
163	0xbc06199b	-0.008184816
164	0x39c197d0	0.00036924938
165	0x3c883c7e	0.016630407
166	0x3ba6b438	0.0050874017
167	0x3bcc7338	0.006239321
168	0xbbb5afaf	-0.0055446248
169	0xbb02d69c	-0.0019964343
170	0xba150ef3	-0.00056861265
171	0xba74bc56	-0.00093359256
172	0xbabf5959	-0.0014598771
173	0x3a3ea0d4	0.000727189
174	0xbb1ef178	-0.0024252813
175	0x3910b450	0.00013800082
176	0x3a57ead4	0.0008236591
177	0xbb662618	-0.003511792
178	0xbc18324d	-0.009289336
179	0xbba2f174	-0.004972631
180	0x3b05c6d3	0.0020412698
181	0x3ace55d5	0.0015742133
182	0x3b20d731	0.0024542327
183	0x3b51ac32	0.0031993506
184	0xbbd0f9ca	-0.0063774334
185	0x3b0d7de2	0.0021589925
186	0xb989e305	-0.0002629982
187	0xb9841fba	-0.0002520064
188	0xbadf4adc	-0.001703586
189	0x3b349dd4	0.0027559893
190	0x3a20e484	0.0006137567
191	0x39670cac	0.00022034597
192	0x3c0810e4	0.008304808
193	0x3cbbc5fe	0.022921558
194	0xb9d736e0	-0.0004104888
195	0x3ac15663	0.0014750477
196	0xbbffac71	-0.007802539
197	0xba8b1752	-0.0010611808
198	0xbc1a8342	-0.009430708
199	0xbd420e9d	-0.047377218
200	0x3b58db7e	0.0033089812
201	0x3c6c333e	0.014416514
202	0x3c889d26	0.016676497
203	0x36787e00	3.7028221e-06
204	0x3bb9eaba	0.0056737335
205	0x3beee089	0.0072899503
206	0x3bd3bf26	0.0064619957
207	0x3b94e102	0.0045434246
208	0x3c1136e6	0.008863186
209	0xba96f589	-0.0011517267
210	0x3a656820	0.00087511726
211	0xba899090	-0.0010495353
212	0xbb684a4a	-0.003544467
213	0x3a6bb40c	0.00089913676
214	0x3b05d656	0.0020421944
215	0x39b5b386	0.00034656766
216	0xbb5ec840	-0.003399387
217	0x3c1e6196	0.009666821
218	0x3a2ce798	0.00065957895
219	0xbaaaaeb0	-0.0013022032
220	0xba426d88	-0.0007416834
221	0xb9333a80	-0.00017092563
222	0xbb83d9ab	-0.004023751
223	0xbc21b0eb	-0.009868841
224	0x3a357c7c	0.00069231517
225	0x36bfb100	5.712849e-06
226	0xbc2a6fc7	-0.010402626
227	0x3b2cde53	0.0026377633
228	0xbb680eef	-0.0035409292
229	0x3d2cf526	0.04222598
230	0x3ae032d8	0.0017104996
231	0xbb12f740	-0.0022425205
232	0xb995fc64	-0.0002860754
233	0xbb17779e	-0.002311207
234	0xb9faf0c6	-0.00047863106
235	0x39d7200b	0.0004103187
236	0x398feb72	0.00027450506
237	0x39345e92	0.00017201368
238	0xbabe67e8	-0.0014526816
239	0x3b6b208e	0.0035877558
240	0xba884261	-0.0010395759
241	0xb9c0351e	-0.0003666067
242	0x394cfc52	0.00019548953
243	0x3b07b079	0.002070455
244	0x3c2c6d90	0.010524169
245	0xb9c77b62	-0.00038048165
246	0x3aecd714	0.0018069469
247	0xbc9d23fa	-0.019182194
248	0xbb437386	-0.0029823496
249	0x3b9d67ba	0.004803625
250	0x3c48306e	0.012218578
251	0x3b899f98	0.0041999333
252	0xbb3b13d8	-0.0028545763
253	0xbb181424	-0.0023205364
254	0xbb1cb3fa	-0.0023910985
255	0xbb6a9a76	-0.0035797632

fnl_conv.0.bias f4 [9]
0	0x3b0e2a48	0.0021692682
1	0x3a14c074	0.00056744297
2	0xbb3b4318	-0.0028573927
3	0x3bcaafd2	0.00618551
4	0xbbb49332	-0.005510711
5	0xbc1fb8de	-0.009748666
6	0x3c108cda	0.008822644
7	0xbb81d47e	-0.0039620986
8	0xbc061104	-0.008182768

gffs_blocks.0.conv.weight f4 [8, 16, 3, 3]
0	0x3f727529	0.9471002
1	0x3f63f722	0.8904897
2	0xbe85b2a7	-0.26112863
3	0x3f96f221	1.1792642
4	0x3f4a9919	0.7913986
5	0x3e83f7b2	0.25774914
6	0xbf510c12	-0.8165904
7	0xbf4c86d2	-0.7989322
8	0xbf3e3a36	-0.7430757
9	0x3ebfd508	0.37467217
10	0x3d434580	0.047673702
11	0xbf16b84f	-0.5887498
12	0x3cc5aedc	0.024131231
13	0x3e45aa87	0.19303332
14	0x3d78ff2c	0.060790226
15	0xbcb01d48	-0.021498337
16	0xbec042d2	-0.3755098
17	0xbdda4456	-0.10657565
18	0x3cd88730	0.02643165
19	0xbde27f79	-0.1105947
20	0x3d6ed122	0.058304913
21	0xbe64ffc2	-0.22363189
22	0xbe04cb5e	-0.12968203
23	0x3e61a178	0.22034252
24	0xbe0925c5	-0.13393314
25	0xbe356dc3	-0.17717652
26	0xbdb99b26	-0.09062795
27	0xbd6e0b57	-0.058116283
28	0xbe0241c0	-0.12720394
29	0xb9070a80	-0.00012878515
30	0xbb9a7bfa	-0.004714486
31	0xbe347995	-0.17624505
32	0xbcea6556	-0.028612774
33	0xbd97e372	-0.074164286
34	0x3c03cd40	0.008044541
35	0x3deee4a6	0.11664705
36	0xbd7cdcfb	-0.06173418
37	0xbd9c0ab1	-0.07619227
38	0xbe2a39c6	-0.16623601
39	0xbcac58c4	-0.02103842
40	0x3f1b1063	0.6057188
41	0x3e06c431	0.13160779
42	0x3d8096ed	0.06278787
43	0xbeaba916	-0.3352744
44	0x3e4a028c	0.19727534
45	0x3a781ac0	0.0009464435
46	0x3de9530d	0.11392794
47	0x3cf8ed53	0.030386603
48	0xbc6866cb	-0.014184664
49	0xbea2fc64	-0.31833184
50	0xbdce669a	-0.100781634
51	0x3d829000	0.06375122
52	0xbb9c5268	-0.004770566
53	0x3e270c14	0.16313201
54	0x3ee7889c	0.45221412
55	0x3ebb9bf7	0.3664243
56	0xbd7deea2	-0.061995156
57	0xbef1b14e	-0.47205585
58	0xbe9f500c	-0.31115758
59	0xbe18d638	-0.14925468
60	0xbe0919ba	-0.1338872
61	0x3eb6e71f	0.35723206
62	0x3e03835a	0.12843075
63	0x3e68748e	0.22700712
64	0x3ef60eae	0.48058075
65	0xbdc20f66	-0.09475593
66	0xbeaa0528	-0.3320706
67	0xbf191150	-0.5979204
68	0xc0140485	-2.3127759
69	0x3e30cc96	0.17265543
70	0x3eac5a00	0.33662415
71	0x3e735aff	0.23765181
72	0xbe32e48e	-0.17469999
73	0x3e346884	0.17617995
74	0xbd8af1b3	-0.06784382
75	0xbe1f87b4	-0.1557911
76	0xbf6ae42d	-0.9175442
77	0x3d93492c	0.07191691
78	0xbe13ccd6	-0.14433607
79	0x3ec4ef98	0.38464046
80	0x3e7b801d	0.2456059
81	0x3e9f6ae0	0.31136227
82	0xbe616223	-0.22010092
83	0x3e12d814	0.1434024
84	0x3e3e2447	0.18568526
85	0xbd5b0a11	-0.053476397
86	0xbe9c7a70	-0.30562162
87	0xbd0e3e94	-0.034727648
88	0x3e04e265	0.12976988
89	0x3e2811ca	0.16413036
90	0xbe210788	-0.15725529
91	0xbebc2652	-0.36747986
92	0x3e067a53	0.131326
93	0x3e1adf27	0.15124188
94	0xbf25c7c6	-0.64757955
95	0x3eeabccc	0.45847166
96	0xbe4226c8	-0.18960106
97	0x3ec2bbfa	0.3803404
98	0xbf146d8e	-0.5797967
99	0x3e2c8c4c	0.16850394
100	0x3dd77ed2	0.10522236
101	0x3e3cd193	0.18439321
102	0xbf16e72f	-0.5894651
103	0xbe56d35c	-0.20979065
104	0xbf3da5d4	-0.7408116
105	0x3dfbb3d2	0.122901574
106	0xbf0c8110	-0.54884434
107	0xbdea8148	-0.1145044
108	0x3dc0593e	0.093920216
109	0xbf06a149	-0.5258985
110	0x3f417346	0.7556652
111	0x3f8e343c	1.1109691
112	0xbfb28c94	-1.3949151
113	0x3fe803fe	1.8126218
114	0xbed67710	-0.41887712
115	0x3dcfbc24	0.10143307
116	0x3ec766d0	0.38945627
117	0x3f750321	0.957079
118	0xbf079fda	-0.5297829
119	0x3f4eda8e	0.8080224
120	0x3ecf8b8c	0.40536153
121	0xbda358fe	-0.07975958
122	0x3f97cbe9	1.1859103
123	0xbe718c9e	-0.23588797
124	0xbedad2ae	-0.4273886
125	0xbe3b8732	-0.18313292
126	0xc00a583e	-2.1616359
127	0xc0952023	-4.660173
128	0x3e98d3f9	0.29849222
129	0xbf9732e8	-1.181241
130	0x3e810bf4	0.25204432
131	0xbee4dd7b	-0.44700226
132	0xbeba6e8c	-0.36412466
133	0xbebe0f60	-0.37121105
134	0xbf12f20d	-0.5740059
135	0x3e03a830	0.12857127
136	0x3de60e88	0.1123324
137	0x3e76f265	0.24115904
138	0x3bf26135	0.007396842
139	0xbfa28eff	-1.2699889
140	0xbede28c5	-0.4339048
141	0x3ea26e10	0.31724596
142	0xba565800	-0.0008176565
143	0x3ebdb39f	0.37051103
144	0x3ff50f22	1.9145243
145	0x3efb0e70	0.49034452
146	0x3e97dc10	0.29660082
147	0x3e083a0d	0.13303395
148	0x3f5ec77c	0.8702314
149	0x3eaa4e38	0.332628
150	0x3e937924	0.2880336
151	0x3f437513	0.76350516
152	0x3f22361c	0.63363814
153	0x3ee56327	0.4480221
154	0xbe9d7156	-0.3075053
155	0xbf826b60	-1.0189018
156	0x3f8cc671	1.099806
157	0xbe9f1c1f	-0.31076142
158	0x3e37f028	0.17962706
159	0xbe6ac0f9	-0.22925176
160	0xbd8596fb	-0.06522938
161	0xbdfb53e4	-0.1227186
162	0xbec3d038	-0.38244796
163	0xbf0982b4	-0.5371506
164	0xbebbe5b5	-0.3669869
165	0xbe79c844	-0.24392802
166	0xbb9d8f08	-0.0048083104
167	0x3d842570	0.06452453
168	0xbe1cfac4	-0.15330034
169	0x3f9c2a68	1.2200441
170	0x3e4779ce	0.19480059
171	0xbd87ae07	-0.0662499
172	0xbdb2d924	-0.087328225
173	0x3df86edc	0.1213052
174	0xbe1dda87	-0.15415393
175	0x3d242950	0.04007846
176	0x3db1be66	0.08678894
177	0xbcdd1573	-0.026987767
178	0xbdbe7971	-0.09300507
179	0xbd1f7e8c	-0.038939044
180	0x3e37d7a8	0.1795336
181	0xbe876e42	-0.26451308
182	0xbe72bb66	-0.237043
183	0xbed0c27c	-0.4077338
184	0xbdf63ed6	-0.12023704
185	0xbf096e1b	-0.5368363
186	0xbc4a0ea9	-0.012332597
187	0x3ec3e665	0.38261715
188	0x3f3a949a	0.72883
189	0xbdf23d00	-0.11828041
190	0x3ca851ef	0.020546881
191	0xbd32009c	-0.043457612
192	0xbdec8dec	-0.11550507
193	0x3e648506	0.2231637
194	0x3d997ab7	0.07494109
195	0xbdbdbea4	-0.092648774
196	0x3e1ed862	0.15512231
197	0xbd48bc0c	-0.04900746
198	0xbde0f096	-0.10983388
199	0x3eed9831	0.46405175
200	0xbe6d633a	-0.23182383
201	0xc00c8381	-2.1955264
202	0xbe42b63d	-0.19014831
203	0x3e0a890d	0.13528843
204	0xbde56f29	-0.11202843
205	0x3e0e457e	0.13893697
206	0xbe1e9854	-0.15487796
207	0xbdb643fb	-0.08899685
208	0xbedfe11b	-0.4372643
209	0x3f02be0c	0.5107124
210	0x3f20c6b6	0.6280321
211	0x3f826521	1.0187112
212	0x3f01ff3a	0.5078007
213	0xbe63caac	-0.22245282
214	0xbfbfb2cf	-1.4976443
215	0xc019fd90	-2.4061012
216	0xbd815f00	-0.06316948
217	0xbc63a290	-0.013893738
218	0x3db70f21	0.089384325
219	0xbe1e2e7f	-0.15447424
220	0x3e7f71db	0.24945776
221	0x3da83cc7	0.08214717
222	0xbce4d800	-0.027935028
223	0xbdc37500	-0.095438
224	0x3dbd4508	0.09241682
225	0xbed7bd1e	-0.42136472
226	0xbc4c3800	-0.012464523
227	0x3ea39da2	0.31956202
228	0xbee0903f	-0.4386005
229	0xbdbac930	-0.09120405
230	0xbef8aed1	-0.48570874
231	0xbddcc8cc	-0.107804865
232	0x3f02b5b9	0.51058537
233	0x3eb49f86	0.35277957
234	0x3e98ba71	0.29829744
235	0xbe20d29c	-0.15705341
236	0xbd1c3a28	-0.0381414
237	0x3e1cff16	0.15331683
238	0xbe06f78c	-0.13180369
239	0xbd9e684d	-0.077347375
240	0xbf993f92	-1.1972525
241	0xbf74b28c	-0.9558494
242	0xbf799cd3	-0.9750492
243	0xbdf3a0b6	-0.118958876
244	0x3c9ca96e	0.01912376
245	0x3effb233	0.49940643
246	0x3e03df84	0.12878233
247	0x3f06b44b	0.52618855
248	0xbdfedcb0	-0.124444366
249	0xbf736b66	-0.9508575
250	0x3ff11abc	1.8836284
251	0xbf0438fb	-0.51649445
252	0xbef63f67	-0.48095247
253	0x3f87b75e	1.0602834
254	0x3f165c78	0.58734846
255	0x3e236ee8	0.15960276

gffs_blocks.0.conv.bias f4 [8]
0	0x3ecad7a9	0.3961766
1	0xbe068093	-0.13134985
2	0x3cf17afc	0.029477589
3	0x3d8efe4e	0.069820985
4	0xbd294cfc	-0.041333184
5	0xbf801400	-1.0006104
6	0xbe8d8b54	-0.2764536
7	0x3fdffa9d	1.7498356

gffs_blocks.0.conv_skip.weight f4 [8, 16, 1, 1]
0	0x3fb4f50b	1.4137281
1	0xbe0039cb	-0.12522046
2	0xbd447d62	-0.047971137
3	0x3ec324a1	0.38113883
4	0xbe9a0697	-0.30083153
5	0xbe3d3821	-0.18478443
6	0x3eae3623	0.34025678
7	0xbef53d03	-0.4789811
8	0xbf4cfcd4	-0.80073285
9	0xbdc1783d	-0.09446762
10	0xbf112c27	-0.56707996
11	0x3e4ef1dc	0.2020945
12	0xbf40a6b0	-0.75254345
13	0xbf2bcbf0	-0.6710806
14	0xbe226be4	-0.1586147
15	0xbf7cbfad	-0.98729974
16	0x3fc3d231	1.529852
17	0xbf9c6781	-1.2219087
18	0xbe281c6e	-0.16417095
19	0xbde2f05e	-0.11081003
20	0x3e09e770	0.13467193
21	0xbe84ba36	-0.25923318
22	0xbcf1d146	-0.029518735
23	0x3d30b5e7	0.043142226
24	0xbe9ba726	-0.30400962
25	0x3e14862e	0.1450431
26	0xbe51e8f1	-0.20499016
27	0xbe5ad511	-0.21370341
28	0x3e101faa	0.14074579
29	0xbea27e0b	-0.31736788
30	0x3e752ece	0.23943636
31	0xbe25a8a0	-0.16177607
32	0x3e037cf5	0.12840636
33	0x3ed1e712	0.40996605
34	0x3f1161d5	0.56789905
35	0x3eb71ef6	0.3576581
36	0xbdd4927f	-0.103795044
37	0xbdbdcc9c	-0.09267542
38	0x3eb1514a	0.3463233
39	0x3f3ced66	0.7379974
40	0xbf2040c5	-0.6259883
41	0x3e01aa16	0.12662539
42	0x3e51da34	0.20493394
43	0x3e801c13	0.2502142
44	0x3ef05579	0.4694021
45	0xbedf9c92	-0.4367414
46	0x3e91f562	0.28507525
47	0xbe90701c	-0.28210533
48	0x3efd4462	0.49466234
49	0x3f4431ef	0.7663869
50	0xbef02c49	-0.46908787
51	0x3d34b6f4	0.04411979
52	0xbdc9af77	-0.098479204
53	0x3f0bf46c	0.54669833
54	0x3dc7d93c	0.09758231
55	0xbe3b40c7	-0.1828643
56	0x3e7f637a	0.24940291
57	0x3e8fa3be	0.28054613
58	0xbe899002	-0.26867682
59	0xbf16add6	-0.58859
60	0xbece38b6	-0.40277642
61	0x3ea11e6e	0.31468529
62	0x3ecd103d	0.4005145
63	0xbc9543cf	-0.01822081
64	0x3ecc0958	0.3985088
65	0x3f85fcca	1.046777
66	0x3c80f9f8	0.015744194
67	0x3ef98401	0.48733523
68	0x3e1e4650	0.1545651
69	0x3e99468a	0.2993663
70	0x3ef25a6b	0.47334608
71	0xbeafd131	-0.34339288
72	0x3d82b0ad	0.063813545
73	0x3f86497a	1.0491173
74	0xbe2f8afd	-0.17142864
75	0xbeadd474	-0.3395115
76	0x3eaf646c	0.34256303
77	0xbd62981e	-0.05532085
78	0x3e208992	0.15677479
79	0xbe9759bb	-0.29560646
80	0xbf35753e	-0.7088202
81	0xbf0248ef	-0.5089254
82	0xbea91e2e	-0.33030838
83	0xbee32017	-0.4436042
84	0xbe527734	-0.20553285
85	0xbe8faf35	-0.2806336
86	0x3e3f8096	0.18701395
87	0xbf339183	-0.7014391
88	0x3ec46bf5	0.38363615
89	0xbd9677eb	-0.07347091
90	0x3ad0d8a5	0.0015933706
91	0xbf066f97	-0.5251402
92	0xbe946068	-0.28979802
93	0x3f5dd222	0.8664876
94	0x3e1d3e47	0.15355788
95	0x3f578537	0.84187645
96	0xbeebd4a7	-0.46060678
97	0x3ea978c1	0.3309994
98	0x3e6e2b47	0.23258696
99	0x3e211a21	0.15732624
100	0x3e4e3a60	0.20139456
101	0x3ec4ea21	0.38459876
102	0x3d934399	0.071906276
103	0xbbe4f97a	-0.0069877477
104	0xbdec793d	-0.11546562
105	0x3e1a07e3	0.15042071
106	0xbea0b948	-0.31391358
107	0x3f07e96b	0.5309054
108	0xbe6545f9	-0.22389974
109	0xbf48a47a	-0.7837597
110	0x3d8bb740	0.068220615
111	0x3d6fda1c	0.058557615
112	0x3d50e40b	0.05099873
113	0x3f4cf4c4	0.8006098
114	0xbde83c77	-0.11339658
115	0x3f29871a	0.66221774
116	0xbda8ea13	-0.08247771
117	0x3f7c4736	0.9854616
118	0xbe9e7847	-0.3095114
119	0x3d88cdd4	0.066798836
120	0x3dafc7b5	0.08583013
121	0xbe4a676e	-0.19766018
122	0xbe5f5cda	-0.21812764
123	0xbee1764e	-0.44035572
124	0xbf09cbbf	-0.53826517
125	0xbe86e17a	-0.263439
126	0x3ecb0eed	0.39659825
127	0x3d763071	0.06010479

gffs_blocks.0.conv_skip.bias f4 [8]
0	0xbd24c2af	-0.040224727
1	0xbe886b0c	-0.2664417
2	0xbe0dfb77	-0.13865457
3	0x3d241b33	0.040065
4	0x3da4de2a	0.08050187
5	0xbf1e9260	-0.619421
6	0x3e90eadb	0.2830418
7	0x3db6b5f0	0.089214206

gffs_blocks.0.depth_wise.weight f4 [8, 1, 3, 3]
0	0xbe9f25e0	-0.31083584
1	0xbefd17b6	-0.49432153
2	0x3dc667ed	0.09687791
3	0xbeb21b28	-0.34786344
4	0x3e94ac28	0.29037595
5	0x3ebbdfb9	0.36694124
6	0x3d4972a3	0.04918159
7	0x3f054ee4	0.520735
8	0xbe3bbeb3	-0.18334465
9	0xbac9e57c	-0.0015403475
10	0xbf121cef	-0.570754
11	0xbe086042	-0.1331797
12	0xbd9c7576	-0.076395914
13	0x3ad6c6b5	0.0016386124
14	0x3dad8679	0.08472914
15	0x3db40093	0.08789172
16	0x3ddc2ddb	0.10750934
17	0x3e55aba1	0.20866252
18	0x3dc865f4	0.09785071
19	0x3f11ec52	0.5700122
20	0x3da3fd69	0.080073185
21	0xbe317bef	-0.17332433
22	0x3e996f92	0.29967934
23	0xbe7abf8b	-0.2448713
24	0x3d991695	0.0747501
25	0xbd817919	-0.06321926
26	0x3e5f480d	0.21804829
27	0xbe013de7	-0.1262127
28	0xbe779ba3	-0.24180464
29	0x3e0b91d7	0.13629852
30	0x3ea65385	0.32485595
31	0xbef0ae25	-0.47007862
32	0xbde37e0c	-0.11108026
33	0xbd0f28e0	-0.03495109
34	0x3dfc1e0e	0.1231042
35	0xbc42a830	-0.011880919
36	0xbca1a9a9	-0.01973422
37	0xbef290f4	-0.47376215
38	0xbe366f22	-0.17815831
39	0xbe7231c3	-0.23651795
40	0x3f11ef62	0.57005894
41	0xbdb4cfe8	-0.088287175
42	0x3d94394b	0.0723749
43	0xbf14ca56	-0.5812124
44	0x3e5660c6	0.20935354
45	0x3c86e472	0.016466353
46	0xbc8fff0e	-0.017577674
47	0x3d916a01	0.07100297
48	0x3cb535e5	0.022120425
49	0x3cbdf5ea	0.02318855
50	0x3e2aefdf	0.16693066
51	0x3d9b02a8	0.07568866
52	0xbf54f199	-0.8318115
53	0x3f005b33	0.5013916
54	0xbcf214b3	-0.029550886
55	0xbd116293	-0.0354944
56	0xbd057cb6	-0.032589637
57	0xbe17c7b0	-0.14822268
58	0xbe1ebd37	-0.15501867
59	0xbd7a6c4e	-0.061138444
60	0x3d03ed67	0.032208826
61	0xbf4bf839	-0.7967563
62	0x3da01009	0.078155585
63	0xbd54610e	-0.05185037
64	0x3dd2cf56	0.102934524
65	0xbd278495	-0.040897924
66	0xbd9e011b	-0.077150546
67	0xbeea31eb	-0.4574121
68	0x3d239517	0.039937105
69	0xbd778242	-0.060426958
70	0x3d5dfb79	0.0541949
71	0xbcdd286f	-0.02699682

gffs_blocks.0.depth_wise.bias f4 [8]
0	0xbe28ab1c	-0.16471523
1	0x3be85189	0.007089798
2	0xbef5191a	-0.47870713
3	0xbf40aae1	-0.7526074
4	0x3e513176	0.20429024
5	0x3eb7d250	0.35902643
6	0x3efe68be	0.49689287
7	0xbeb1d954	-0.3473612

gffs_blocks.0.fgsm.fusion.0.weight f4 [1, 16, 1, 1]
0	0xbf491b71	-0.785575
1	0x3fa04a42	1.2522662
2	0x3e2bc82f	0.16775583
3	0x3e07cca3	0.13261656
4	0x3e69e324	0.22840554
5	0x3f6ede43	0.93307894
6	0xbf1652bf	-0.5872001
7	0xbf1d3749	-0.61412483
8	0x3f3a0bff	0.72674555
9	0x3f5f6a62	0.872717
10	0xbf02eb8b	-0.5114066
11	0x3ea1b42e	0.3158278
12	0xbf7ac1b1	-0.979518
13	0x3ecd3401	0.40078738
14	0x3f4c578a	0.79821074
15	0x3f97734d	1.1832062

gffs_blocks.0.fgsm.mask_maker.0.weight f4 [16, 1, 3, 3]
0	0x3e166768	0.14687884
1	0x400ab1d9	2.167105
2	0xc160693b	-14.025691
3	0x40059a20	2.087532
4	0xbf32cb30	-0.6984129
5	0xc0f19cbf	-7.550384
6	0xbe859994	-0.26093733
7	0x411f3a5e	9.95175
8	0x4103d189	8.238656
9	0x402fe750	2.7484932
10	0x40e1c8c7	7.055759
11	0xc1501c68	-13.006935
12	0xbfc4c8d2	-1.5373785
13	0x3fdfe706	1.7492378
14	0xc1a54795	-20.659952
15	0xc03b3884	-2.9253244
16	0xbfdbd4f4	-1.7174363
17	0xc197cc84	-18.974861
18	0x3f8ffc9d	1.1248966
19	0x405c6dee	3.4442096
20	0x3fe859e6	1.8152435
21	0x3faed47c	1.3658595
22	0xbfea3f17	-1.8300503
23	0x405f06e8	3.4847965
24	0x401801c0	2.3751068
25	0xbfbcddb0	-1.4755154
26	0x3fd8904e	1.6919038
27	0xbf783691	-0.9695826
28	0x415cb471	13.794053
29	0xc150e32c	-13.055462
30	0xbf730fa1	-0.9494572
31	0xc0b5b57d	-5.6784043
32	0xbfa38492	-1.2774832
33	0x400bd43c	2.1848288
34	0xbfe121a2	-1.7588389
35	0x40590e5e	3.391502
36	0x3ef4d592	0.4781919
37	0x401071a6	2.2569366
38	0x3fa0bf0b	1.2558302
39	0x3fc75f5b	1.5575975
40	0xbf97bcd0	-1.1854496
41	0x4051baec	3.2770338
42	0x400bc5d0	2.1839485
43	0xbf51d822	-0.8197042
44	0x3fee6922	1.8625834
45	0xc02921b4	-2.642682
46	0x411c9e15	9.788594
47	0xc09df010	-4.9355545
48	0x409b1e44	4.8474445
49	0x4047cf97	3.1220453
50	0xc1073813	-8.45119
51	0xc001b191	-2.0264628
52	0xc0fca2e1	-7.8948827
53	0xc043c3ac	-3.0588179
54	0x4070671b	3.756293
55	0x416ec980	14.924194
56	0xc1902faf	-18.023283
57	0xc07a2d66	-3.909021
58	0x40495cfa	3.1462998
59	0xc1c4a2b9	-24.579454
60	0xc148aab3	-12.541675
61	0xc14c193e	-12.756163
62	0xc152260e	-13.134291
63	0x3e8a2011	0.2697759
64	0x4049dae0	3.153984
65	0x3f664f72	0.89964974
66	0x400224e4	2.0335016
67	0xbf415f36	-0.75535905
68	0x406dcddf	3.7156904
69	0x40191a11	2.392216
70	0xbfbd2f2c	-1.4780021
71	0x40272e5f	2.6122053
72	0xc059635a	-3.396689
73	0x40134596	2.3011222
74	0xc1863336	-16.775005
75	0x4088ce11	4.2751546
76	0x4035da38	2.841444
77	0xc11fb80a	-9.982431
78	0xc02969e1	-2.6470873
79	0x401b21e5	2.4239438
80	0xbdc9aa90	-0.09846985
81	0x403be53a	2.9358659
82	0xbfe2307b	-1.7671045
83	0x3f9548c8	1.1662836
84	0xbfcae18e	-1.5850084
85	0xc01894de	-2.3840861
86	0xc11616e4	-9.380589
87	0x406dcf95	3.7157948
88	0x3f4cbaf8	0.7997279
89	0xc17f0063	-15.937594
90	0xbed4f466	-0.4159271
91	0xbe8d7231	-0.27626184
92	0x40e75bcd	7.229956
93	0x404c6492	3.1936383
94	0x3f94a757	1.1613568
95	0x40d0f5bc	6.529997
96	0x405dd6b7	3.4662302
97	0x3fff01ba	1.9922402
98	0x40784717	3.879339
99	0x3eb465c7	0.352339
100	0x4021d96b	2.5288951
101	0x3fb6b4c0	1.427391
102	0x4005340d	2.081302
103	0x3ec8ba87	0.3920481
104	0x40383790	2.8783913
105	0x400899e5	2.134393
106	0xbf290b54	-0.6603291
107	0x3f6403d2	0.8906833
108	0x3ed115f4	0.4083706
109	0x40014d34	2.020337
110	0x3f8ea1a4	1.1143079
111	0x3f98cbe0	1.1937218
112	0x3d93b840	0.07212877
113	0x3fe7b3ca	1.8101742
114	0x3fe65500	1.799469
115	0x3edf600e	0.4362797
116	0x3ea322c7	0.3186247
117	0x3f99e280	1.2022247
118	0x3f7e6e29	0.9938684
119	0x3f6d5674	0.9271004
120	0xc1167425	-9.403356
121	0x3e8786c8	0.26470017
122	0xc0344dfe	-2.8172603
123	0xc14e250d	-12.884046
124	0x3eaac0ec	0.33350313
125	0x3fadeda8	1.3588152
126	0xbe3f9d7e	-0.18712422
127	0x3e9b52fc	0.3033675
128	0x40c826c8	6.254734
129	0xc0202414	-2.502202
130	0x40abcd06	5.3687773
131	0xc1864b84	-16.786873
132	0xc11fc0f8	-9.9846115
133	0xc11be4d6	-9.743368
134	0xc11c45ea	-9.767069
135	0x3f1845ba	0.59481394
136	0x401ea4d2	2.4788098
137	0x3f8d1945	1.1023337
138	0x3fff667d	1.9953152
139	0x3e472b88	0.194502
140	0x400a8254	2.1642046
141	0x3fe4f472	1.7887099
142	0xbe0bc1d1	-0.13648154
143	0x3f9f1216	1.2427394

gffs_blocks.0.fgsm.mask_maker.0.bias f4 [16]
0	0xc110ee2d	-9.058148
1	0x41e023f5	28.017557
2	0xbf9002e9	-1.1250888
3	0x408bc7f4	4.3681583
4	0x4029efab	2.6552532
5	0x418b6566	17.424511
6	0x41c0dd40	24.108032
7	0x3fefd6e9	1.873746
8	0x40f4c336	7.6488295
9	0x419260a8	18.297195
10	0xc0f4718b	-7.63886
11	0x4023ee32	2.5614133
12	0x3fe9533a	1.8228524
13	0x413b4007	11.703132
14	0x40d215e6	6.565173
15	0x40287c32	2.6325803

gffs_blocks.0.fgsm.mask_maker.1.weight f4 [16]
0	0x4005c095	2.0898793
1	0x40509bb4	3.2595034
2	0x3ec1cae4	0.37850106
3	0x400d9185	2.2120068
4	0x3e92e84a	0.28692847
5	0x401e1fa4	2.4706812
6	0x4056ff47	3.359331
7	0x3e659fff	0.22424315
8	0x3fa3d50c	1.2799392
9	0x3fc75d38	1.5575323
10	0x3f2fe8de	0.687147
11	0x3e7f0267	0.2490326
12	0x3e86c07b	0.26318726
13	0x3fc5f1a8	1.5464373
14	0x3fcc9916	1.5984218
15	0x3e7993c3	0.24372773

gffs_blocks.0.ca.ca.1.weight f4 [1, 16, 1, 1]
0	0xbeca8252	-0.39552552
1	0xbe84353c	-0.25821865
2	0x3e22add7	0.15886627
3	0xbda44442	-0.08020832
4	0xbe778a2d	-0.24173804
5	0x3cd9bf2e	0.02658042
6	0xbe8af611	-0.2714086
7	0x3e103bf1	0.14085366
8	0xbeb6fdc1	-0.35740474
9	0x3da11520	0.078653574
10	0x3e376c55	0.17912419
11	0xbdaf7419	-0.08567066
12	0xbd9bc483	-0.07605841
13	0x3ce7beb8	0.028289184
14	0x3f0c4454	0.5479176
15	0x3e1e55ca	0.15462413

gffs_blocks.0.ca.ca.3.weight f4 [16, 1, 1, 1]
0	0x3f0adcea	0.5424334
1	0x3e435738	0.1907624
2	0xbe949a54	-0.29023993
3	0xbe73aab8	-0.23795593
4	0xbf26e8f8	-0.6519923
5	0x4062a5e1	3.5413744
6	0x3f219d25	0.6313041
7	0xbeb7be0e	-0.35887188
8	0xbf2c9264	-0.67410874
9	0xbe787e9c	-0.24267048
10	0xbec120a2	-0.3772021
11	0xbf6cfb76	-0.925712
12	0xbf0343aa	-0.5127512
13	0xbf659c85	-0.89691955
14	0x3f8d08e5	1.1018339
15	0xbd66a44b	-0.056309026

gffs_blocks.0.ca.ca.3.bias f4 [16]
0	0x3e80e917	0.25177833
1	0xbe1fc300	-0.1560173
2	0x3f461188	0.773705
3	0x3f0663e3	0.52496165
4	0x3f778370	0.9668493
5	0xbf32872c	-0.69737506
6	0xbfbf323d	-1.4937207
7	0x3f0cfd6d	0.550742
8	0xbedc6f8a	-0.43053848
9	0xbf832771	-1.0246412
10	0xbed5f4ab	-0.4178823
11	0xbe87988e	-0.26483577
12	0x3f1a4893	0.6026699
13	0x3f2370a7	0.6384377
14	0x3f1882ec	0.5957477
15	0x3e431d19	0.19054069

gffs_blocks.0.prelu.weight f4 [16]
0	0x3d1ccac3	0.038279306
1	0x3cf4b79c	0.029872708
2	0x3f30e719	0.6910263
3	0x3f4e6627	0.8062462
4	0x3f0cced4	0.55003095
5	0x3d31e440	0.043430567
6	0xbf63a379	-0.88921314
7	0x3e86f7d9	0.26360968
8	0x3ebfb5cf	0.37443396
9	0xbf84707a	-1.0346825
10	0xbe926961	-0.28596023
11	0x3e4d7ebf	0.20067881
12	0x3ed32609	0.41239956
13	0x3eb669a6	0.35627478
14	0x3d604f1a	0.054762937
15	0x3ea7d4c6	0.3277952

gffs_blocks.1.conv.weight f4 [8, 16, 3, 3]
0	0xbd18b85f	-0.037285205
1	0xbea45bb8	-0.32101226
2	0x3e2c681a	0.16836587
3	0x3e2c58be	0.16830727
4	0x3f61e59e	0.88240993
5	0xbf92f002	-1.1479495
6	0x3f898a7f	1.0745391
7	0x3e01ed2a	0.12688127
8	0xbf4ecb3a	-0.8077885
9	0x3eb8a56a	0.360637
10	0xbe9f45e2	-0.31108004
11	0xbd08d53c	-0.03340648
12	0x3e963a99	0.2934158
13	0x3e98025b	0.29689297
14	0x3e832e84	0.25621426
15	0x3cdf666c	0.027270518
16	0x3ee5a03c	0.44848812
17	0xbebaf30b	-0.36513552
18	0xbda9047d	-0.08252809
19	0x3ea983ad	0.33108273
20	0x3e107cfd	0.14110179
21	0xbbf493a0	-0.0074638873
22	0xc0548c40	-3.3210602
23	0xbf40fcba	-0.7538563
24	0x3e21787d	0.15768619
25	0xbf1769e6	-0.59145963
26	0xbcf3adb0	-0.029745907
27	0x3ea4e337	0.322046
28	0x3cc587ac	0.024112545
29	0x3e60f99b	0.21970217
30	0xbf04f8c9	-0.51942116
31	0x402c19ab	2.6890666
32	0x3e227e44	0.15868479
33	0xbe5c387a	-0.21505919
34	0x3ee98918	0.45612407
35	0xbdb90b37	-0.09035342
36	0xbe5730ee	-0.21014759
37	0xbf81ffe9	-1.0156223
38	0x3e95e034	0.29272616
39	0x3f291010	0.66040134
40	0xbf2f2a88	-0.6842427
41	0xbf824cd7	-1.01797
42	0x3ee9a67f	0.4563484
43	0xbebbd521	-0.36686042
44	0xbf098d4e	-0.5373124
45	0x3d5f87ce	0.054572873
46	0x3e3ad61e	0.18245742
47	0xbd95c0b0	-0.07312143
48	0xbeeb8c8f	-0.46005675
49	0xbe242a86	-0.16031846
50	0x3f379834	0.7171662
51	0xbed94160	-0.4243269
52	0x3e614e04	0.22002417
53	0x3f35be08	0.7099309
54	0xbe24cc57	-0.16093574
55	0xbca13fa8	-0.019683674
56	0xbd3145da	-0.043279506
57	0xbde1b727	-0.11021262
58	0x3bbaaac0	0.0056966245
59	0xbd0f0364	-0.034915343
60	0xbe134f26	-0.14385661
61	0xbce938f2	-0.028469536
62	0xbdace295	-0.084416546
63	0xbe139ca9	-0.1441523
64	0x3dcacf25	0.09902791
65	0x3d3166c5	0.0433109
66	0xbe9b7b9b	-0.3036774
67	0xbe8b5fb4	-0.27221453
68	0x3e3469f7	0.17618547
69	0xbd5bea32	-0.053690143
70	0x3e40a1ff	0.18811797
71	0xbeafc738	-0.3433168
72	0x3cbd78b8	0.023128852
73	0x3e1d7c54	0.15379459
74	0x3e3f8aa6	0.18705234
75	0x3a259780	0.0006316826
76	0xbbd22554	-0.0064131413
77	0xbe3515c8	-0.1768409
78	0x3dbf6625	0.093456544
79	0xbed78441	-0.4209309
80	0xbf14f920	-0.58192635
81	0x3a42e400	0.00074344873
82	0xbc6eed20	-0.014582902
83	0xbe16ee27	-0.14739285
84	0x3e546776	0.20742592
85	0x3e3aabf1	0.18229653
86	0xbe8420f5	-0.25806394
87	0x3e35f9ae	0.17771026
88	0xbd256beb	-0.04038612
89	0x3bb3a1e0	0.0054819435
90	0xbdeb7a4e	-0.11497937
91	0xbe70e31c	-0.23524135
92	0x3d51029c	0.05102788
93	0x3d30c793	0.04315908
94	0x3f4e5d0e	0.8061074
95	0xbee31ff2	-0.4436031
96	0xbedce314	-0.43141997
97	0xbeac0592	-0.33598
98	0xbe32c73b	-0.17458813
99	0xbe51bf54	-0.20483142
100	0xbf6d1c83	-0.9262163
101	0x3db42f7e	0.08798121
102	0xbd61bc08	-0.05511096
103	0x3f1e669c	0.6187532
104	0xbe238fd1	-0.1597283
105	0xbf2f9242	-0.68582547
106	0x3f2bf38a	0.67168486
107	0x3fa162a0	1.2608223
108	0x3e241b2b	0.16025989
109	0x3e0aafe3	0.13543658
110	0xbdae1298	-0.0849964
111	0xbedb49ec	-0.42829835
112	0x3f49781a	0.78698885
113	0xbeccd27d	-0.4000434
114	0xbdabb7d2	-0.0838467
115	0xbe4554c8	-0.19270623
116	0x3d466568	0.048436552
117	0x3ee19d02	0.440651
118	0x3f5ea237	0.8696627
119	0xbe84df01	-0.25951388
120	0xbeef7c2d	-0.46774426
121	0xbfbfdadb	-1.4988664
122	0x3f8c153e	1.0943983
123	0x3ecd32af	0.4007773
124	0x3d643970	0.05571884
125	0xbe88c716	-0.2671439
126	0x3d7704f0	0.060307443
127	0x3e6ddec9	0.23229517
128	0x3e5e0c27	0.21684323
129	0x3f338773	0.70128554
130	0x3ef91450	0.4864831
131	0xbfaca7e0	-1.3488731
132	0x3e818938	0.25300002
133	0xbf2d3324	-0.6765616
134	0xbd21cfa2	-0.039504655
135	0x3da1c3f2	0.07898702
136	0xbe73c7b4	-0.2380665
137	0x3e4e2fd6	0.20135435
138	0xbd74c25a	-0.05975566
139	0xbe6ad054	-0.22931033
140	0x3ecd1426	0.40054435
141	0xbcff2788	-0.03114678
142	0x3cbe9168	0.023262694
143	0xbe1d5500	-0.15364456
144	0xbf24cad5	-0.64372
145	0xbf20bb7b	-0.6278607
146	0xbe15626a	-0.14588323
147	0x3f9bb493	1.2164482
148	0x3ea4d952	0.32197052
149	0x3f856cb4	1.0423799
150	0x3fc7c424	1.5606732
151	0xbe40e72c	-0.18838185
152	0x3fe15c14	1.7606225
153	0xbecd37ca	-0.40081626
154	0xbf0ddd7c	-0.55416083
155	0xbf01aa67	-0.5065064
156	0x3e2eabac	0.17057675
157	0xbfb340ad	-1.4004112
158	0xbf13f800	-0.5780029
159	0xbe89d391	-0.26919225
160	0x3fbb89d6	1.4651439
161	0x3e30f6da	0.17281666
162	0xbeded250	-0.4351983
163	0xbe6e8bdb	-0.23295538
164	0x3e48d25a	0.19611493
165	0x3fc76346	1.5577171
166	0x3ea430dc	0.32068527
167	0xbdd9d7d7	-0.10636871
168	0xbd8802da	-0.06641169
169	0xbff40e16	-1.9066799
170	0x3e09b45f	0.13447712
171	0x3f319264	0.69364
172	0x3db32b88	0.08748537
173	0x3e193a96	0.14963755
174	0xbccbc9de	-0.024876531
175	0x3e4ab3bb	0.19795124
176	0x3f88fa3c	1.0701365
177	0xbf7bb3a0	-0.9832096
178	0xbf8216b2	-1.0163176
179	0xbde0ac8e	-0.10970412
180	0xbf2c62d5	-0.67338306
181	0xc00a9927	-2.1655977
182	0xbfdc58bc	-1.721458
183	0x3f8a55a3	1.0807384
184	0x3f9e332c	1.2359366
185	0xbdf3ebde	-0.119102225
186	0x3f01820c	0.5058906
187	0xbfb180ca	-1.3867428
188	0xbea5c537	-0.32377025
189	0xbf56ea00	-0.83950806
190	0xbfd0d13c	-1.6313853
191	0xbf4226d0	-0.75840473
192	0xbf438304	-0.7637179
193	0xbf1c998b	-0.6117179
194	0xbfc52ffd	-1.540527
195	0x3c400f80	0.0117224455
196	0xc0629e65	-3.5409176
197	0x3ef34a4a	0.47517616
198	0xbe88dc9b	-0.2673081
199	0xbe424458	-0.18971384
200	0xbdeff87a	-0.11717315
201	0x3e020a3c	0.12699217
202	0x3dab8845	0.08375601
203	0xbd92d0dc	-0.07168743
204	0xbda331d8	-0.07968491
205	0x3e882708	0.26592278
206	0xbd24d09a	-0.040238
207	0xbd8914d3	-0.06693425
208	0xbe2347bc	-0.15945333
209	0xbda4608a	-0.08026226
210	0x3e647950	0.22311902
211	0xbd8f7f1c	-0.07006666
212	0x3d0baef2	0.034102388
213	0x3e8f2f33	0.27965698
214	0x3e9f8c9e	0.3116197
215	0x3eb334a6	0.35001105
216	0x3e668de8	0.2251507
217	0xbd26041c	-0.040531263
218	0x3e397b26	0.18113384
219	0x3ee1aaa5	0.44075504
220	0x3e0c65c9	0.13710703
221	0xbeb81d09	-0.35959652
222	0x3f231b86	0.6371387
223	0x3f748284	0.9551165
224	0x3f00b362	0.50273716
225	0x3ef56f2c	0.4793638
226	0x3eb11472	0.3458591
227	0xbbbac920	-0.0057002455
228	0x3df79c4a	0.12090357
229	0x3ef4f28f	0.47841308
230	0x3e03758e	0.12837812
231	0xbebcd1d0	-0.36878824
232	0xbe95a33c	-0.292261
233	0x3e852ab8	0.26009154
234	0xbdb32104	-0.087465316
235	0x3d98abec	0.074546665
236	0xbe3349dc	-0.17508644
237	0xbe8d2002	-0.27563483
238	0xbf6d07fd	-0.92590314
239	0xbf590565	-0.84773856
240	0xbe00bd86	-0.12572297
241	0xbec42cbc	-0.3831538
242	0xbf80d0c9	-1.0063716
243	0x3e81cd33	0.25351867
244	0xbf0ba2e4	-0.54545426
245	0x3ec73377	0.38906452
246	0x3ee9ffde	0.45703024
247	0x3f461bfa	0.7738644
248	0x3f1142b1	0.5674239
249	0xbf71d760	-0.9446926
250	0x3f979d2a	1.1844838
251	0x3f0095a9	0.50228363
252	0xbe8b3923	-0.2719203
253	0xbf930454	-1.1485696
254	0xbe9d10f3	-0.30676994
255	0xbfada89c	-1.356708

gffs_blocks.1.conv.bias f4 [8]
0	0x3f344c32	0.70428765
1	0x4041e848	3.0298023
2	0xbff6dd60	-1.9286308
3	0xbfb2e10e	-1.3974931
4	0x403513d1	2.8293345
5	0xbf93c456	-1.1544292
6	0x40508c2d	3.2585557
7	0x3e0e090c	0.13870639

gffs_blocks.1.conv_skip.weight f4 [8, 16, 1, 1]
0	0x3d261d58	0.040555328
1	0xbf6669ce	-0.90005195
2	0xbf4f9cf3	-0.8109886
3	0x3e8bbf14	0.2729422
4	0x3cc14b30	0.023595423
5	0x3f05d7f2	0.5228263
6	0xbe039260	-0.12848806
7	0xbdd3a860	-0.10334849
8	0xbea73f87	-0.32665655
9	0x3e8ac6a0	0.27104664
10	0xbf28ab3c	-0.6588628
11	0x3da001be	0.07812832
12	0x3dfe5456	0.124184296
13	0xbf20f5d8	-0.6287513
14	0x3f3e31d3	0.74294776
15	0x3e942206	0.28932208
16	0xbf055fe8	-0.52099466
17	0xbfd07394	-1.6285272
18	0xbebccd3d	-0.36875334
19	0x3f186049	0.5952192
20	0xbe051897	-0.12997662
21	0xbf424756	-0.758901
22	0x3efca628	0.49345517
23	0xbf250340	-0.64458084
24	0xbe0299a8	-0.12753928
25	0x3e8a2e14	0.2698828
26	0xbdc22949	-0.09480531
27	0x3ec04713	0.37554225
28	0xbe36bfbe	-0.17846581
29	0xbe8c271e	-0.27373594
30	0x3f54ab94	0.8307431
31	0x3e19ad1a	0.1500744
32	0xbca3bced	-0.019987548
33	0xbe996df9	-0.29966715
34	0xbe36c57a	-0.17848769
35	0x3eb58bc8	0.35458207
36	0x3ebde350	0.37087488
37	0xbfc79c01	-1.5594484
38	0xbdc37514	-0.09543815
39	0x3f5bfc03	0.85931414
40	0xbeb9a9d5	-0.36262384
41	0x3f29ade3	0.66280955
42	0xbf7ed4c8	-0.9954343
43	0xbe3c1f9c	-0.18371433
44	0x3b8913d6	0.004183273
45	0xbdc71340	-0.097204685
46	0xbe6747dc	-0.22586006
47	0xbe27a54c	-0.1637165
48	0xbe82f5f6	-0.25578278
49	0xbe1b8937	-0.15189062
50	0x3eb3bb46	0.35103816
51	0x3ec18815	0.37799135
52	0xbe993721	-0.29924873
53	0x3fed6d44	1.854897
54	0x3f90b87e	1.1306303
55	0x3f53c5c0	0.8272362
56	0xbfbf497a	-1.4944298
57	0xbbc98e25	-0.006150978
58	0xbf7e3674	-0.9930184
59	0x3f052bf4	0.5202019
60	0x3e6e663e	0.2328119
61	0xbe92b881	-0.2865639
62	0xbe8ef5b9	-0.27921847
63	0xbe4de10f	-0.20105384
64	0xbe7b48ea	-0.24539533
65	0x3f28ecb4	0.6598618
66	0x3dbc5177	0.09195226
67	0xbf593540	-0.8484688
68	0x3d99bcc8	0.0750671
69	0x40185217	2.3800104
70	0xbe2fdbaa	-0.17173639
71	0x3e193031	0.1495979
72	0xbf9e19b2	-1.2351592
73	0xbf2a38ce	-0.6649293
74	0xbf89de91	-1.0771047
75	0xbf4bcdfd	-0.7961119
76	0xbf091b93	-0.535577
77	0x3f2f39fe	0.68447864
78	0x3f205b52	0.62639344
79	0x3f76be51	0.9638415
80	0x3f021a07	0.50820965
81	0x3ebe4bfd	0.3716735
82	0x3f049e68	0.5180421
83	0xbed29b23	-0.41133985
84	0x3e9c2a31	0.3050094
85	0xbca59b9c	-0.020215802
86	0x3f1d4219	0.6142898
87	0x3e0c9e36	0.13732228
88	0xbe8478ad	-0.25873318
89	0x3c4b0b25	0.012392794
90	0xbf1fd19c	-0.62429214
91	0x3eb0eac1	0.34554103
92	0xbf34c3eb	-0.7061145
93	0x3f1d8e55	0.61545306
94	0x3e2aded7	0.16686569
95	0x3f6150be	0.8801383
96	0x3e18b67e	0.14913365
97	0x3e99cdc3	0.30039796
98	0x3da1b6be	0.078961834
99	0xbec6c493	-0.3882185
100	0xbf893120	-1.0718117
101	0xbda9e337	-0.08295291
102	0x3e7d0749	0.2470981
103	0xbfee7e7d	-1.8632351
104	0x3dd8a943	0.10579159
105	0xbe9893d1	-0.29800275
106	0x3d6e47dc	0.058174
107	0x3f2098aa	0.62732947
108	0xbf497b9e	-0.7870425
109	0x3e1c44ed	0.15260668
110	0x3f9b3490	1.2125416
111	0x3e7eeb57	0.24894463
112	0x3e1e7c21	0.15477039
113	0x3fada5ba	1.3566201
114	0xbe184b77	-0.14872538
115	0xbf391bff	-0.72308344
116	0xbee96f15	-0.4559256
117	0x404bb19f	3.1827161
118	0xbf2cbf5b	-0.67479485
119	0x3eda0d33	0.42588195
120	0xbfb6434e	-1.423929
121	0xbe81db0a	-0.25362426
122	0xbf179500	-0.5921173
123	0x3e05d37d	0.13068958
124	0x3daf8740	0.08570719
125	0xbdbed41a	-0.09317799
126	0xbfb3229d	-1.3994938
127	0xbc6f89a8	-0.014620222

gffs_blocks.1.conv_skip.bias f4 [8]
0	0x3d28acf7	0.041180577
1	0x3d97dd4a	0.074152544
2	0xbee9ca9c	-0.4566239
3	0xbe7c8309	-0.24659361
4	0xbe041abe	-0.12900826
5	0x3d8340fd	0.0640888
6	0xbd3fbaac	-0.046808884
7	0xbe6e2e23	-0.23259787

gffs_blocks.1.depth_wise.weight f4 [8, 1, 3, 3]
0	0x3d51dd7e	0.051236622
1	0xbf12026b	-0.5703494
2	0x3d96cc65	0.07363204
3	0x3d2b4dec	0.04182236
4	0x3f062ede	0.52415264
5	0xbd52ca9e	-0.051462762
6	0xbd20477a	-0.039130665
7	0xbc76a3af	-0.015053674
8	0xbc8a24dc	-0.016863279
9	0xba115c20	-0.0005545039
10	0x3e84003d	0.25781432
11	0xbd9c9f89	-0.076476164
12	0x3ea303c2	0.31838804
13	0xbf5d143f	-0.8635902
14	0x3d213de0	0.03936565
15	0x3df11a7d	0.1177263
16	0x3e9aa96f	0.30207393
17	0x3e46f61b	0.1942982
18	0xbc94eaa7	-0.018178297
19	0x3eeac16f	0.45850703
20	0xbece51f9	-0.40296915
21	0xbf3a8499	-0.7285858
22	0x3f0e2d63	0.55538005
23	0x3e5de856	0.2167066
24	0xbcba126f	-0.022713868
25	0xbda8dfdf	-0.08245825
26	0x3cccf70e	0.025020149
27	0x3d8785a4	0.06617287
28	0x3c7fd589	0.015614876
29	0xbddc7c74	-0.10765925
30	0x3e4401b8	0.1914128
31	0xbeba45b2	-0.36381298
32	0xbef517aa	-0.47869617
33	0xbe46fb45	-0.19431789
34	0xbed25946	-0.41083735
35	0xbea75af7	-0.32686588
36	0x3dcc3046	0.09970145
37	0x3c26d76e	0.010183198
38	0x3d10fcd1	0.035397355
39	0x3e68524a	0.22687641
40	0xbf47128f	-0.77762693
41	0x3d9d8bb3	0.07692661
42	0xbb24b56d	-0.0025132552
43	0x3e946a9e	0.28987592
44	0x3dbf29cc	0.09334144
45	0x3d894b27	0.06703787
46	0xbe0db6a9	-0.1383921
47	0xbced4401	-0.02896309
48	0x3ec6d9cb	0.38838038
49	0xbf097013	-0.53686637
50	0x3dec2c65	0.11531905
51	0x3dcfa239	0.101383634
52	0xbdd1f927	-0.102526
53	0xbd867eff	-0.06567191
54	0xbc6a1900	-0.014288187
55	0xba88f0d7	-0.0010447752
56	0xbcd1dc05	-0.025617609
57	0x3e1cfee8	0.15331614
58	0xbe5d25f4	-0.21596509
59	0x3d980dab	0.07424482
60	0x3ddf883a	0.10914655
61	0xbec392c3	-0.38197908
62	0x3e9c886c	0.30572832
63	0xb996aa6e	-0.0002873721
64	0x3c899b58	0.016797706
65	0xbe533cc0	-0.20628643
66	0x3d8b0cf4	0.0678958
67	0x3e820da4	0.25401032
68	0xbe39de0a	-0.18151107
69	0x3e21a656	0.15786108
70	0x3f162098	0.58643484
71	0xbcdbd9bd	-0.026837224

gffs_blocks.1.depth_wise.bias f4 [8]
0	0xbde04f4b	-0.10952624
1	0xbcc285f5	-0.023745516
2	0xbdd660c3	-0.104676746
3	0xbdb9b6c0	-0.0906806
4	0x3dec1a51	0.11528457
5	0xbddb902d	-0.10720859
6	0xbe4c05ea	-0.19924131
7	0x3f1c522e	0.61062896

gffs_blocks.1.fgsm.fusion.0.weight f4 [1, 16, 1, 1]
0	0x3f18437b	0.5947797
1	0xbf08e4de	-0.53474224
2	0x3eb14395	0.34621873
3	0x3f949d4f	1.1610507
4	0x3fe8c207	1.8184212
5	0x3f8c1c71	1.094618
6	0x3f21febc	0.6327932
7	0x3fab1582	1.3365939
8	0xbcd1cd2b	-0.025610527
9	0x3f56a1fe	0.8384093
10	0xbec01c35	-0.3752152
11	0x3e5330b4	0.20624048
12	0x3f1c3cf0	0.61030483
13	0xbe11d9e1	-0.1424327
14	0x3ebeb805	0.3724977
15	0xbe2216ac	-0.15828961

gffs_blocks.1.fgsm.mask_maker.0.weight f4 [16, 1, 3, 3]
0	0xc05429fe	-3.315063
1	0x405d57c8	3.4584827
2	0x4126c242	10.422426
3	0x40d658b4	6.698328
4	0x415cd336	13.801565
5	0x3f1f8354	0.62309766
6	0x3f039064	0.513922
7	0xbf15d6ca	-0.5853087
8	0xbfbb9c34	-1.4657044
9	0x40007f78	2.00778
10	0xbe7714d8	-0.24129045
11	0xbeef8b54	-0.46785986
12	0xbf1eeb7e	-0.6207808
13	0xc19f4b7a	-19.911854
14	0x402bd16d	2.6846573
15	0xbef41008	-0.4766848
16	0x405231b6	3.284284
17	0x3de6da36	0.11272089
18	0x3e2e4dc4	0.17021853
19	0x3fed344d	1.8531586
20	0x3ff68057	1.9257916
21	0x3fcca095	1.5986506
22	0xbe2121f0	-0.15735602
23	0x3f8a45b8	1.0802526
24	0x3f7fb30b	0.9988257
25	0x40301c01	2.7517092
26	0x4044bc48	3.0739918
27	0x3e70ebb6	0.23527417
28	0x3ffde3b7	1.9835118
29	0x3fac5c96	1.3465755
30	0x3fcd6060	1.6045036
31	0xbe35e904	-0.1776467
32	0x3f9e1ce3	1.2352566
33	0x3ebcd0ae	0.3687796
34	0x4012d972	2.2945218
35	0x402119ad	2.5171921
36	0x3ffb987c	1.965591
37	0x409dddbc	4.933317
38	0xbcac7360	-0.021051109
39	0x4058ca0a	3.3873315
40	0xbec3fdea	-0.3827966
41	0x401d1c3c	2.4548483
42	0x3ff1411e	1.8847997
43	0x4089ad2e	4.30239
44	0x402bde68	2.6854496
45	0xbed7ae38	-0.42125106
46	0x41416143	12.086246
47	0xbec5ceff	-0.38634488
48	0x3f3714e4	0.7151625
49	0xc012847e	-2.2893367
50	0x3f11fc08	0.57025194
51	0xbe7adc80	-0.24498177
52	0x3e903414	0.28164732
53	0x3f33bbe4	0.70208573
54	0xbfb94c47	-1.4476403
55	0xc008746a	-2.1321054
56	0x417525b2	15.321703
57	0x3f307986	0.6893543
58	0xc0662a82	-3.5963445
59	0xc0fa1504	-7.8150654
60	0xbe177664	-0.14791256
61	0xbf8b7c3a	-1.0897286
62	0x3e9bf8fd	0.304634
63	0x3d7d2c88	0.061810046
64	0xc111322a	-9.074747
65	0xbe28125e	-0.16413257
66	0xc04d868a	-3.2113366
67	0xc0a430f3	-5.1309752
68	0xc03dccc1	-2.9656222
69	0x3edfed65	0.43735805
70	0xc153a48c	-13.227673
71	0x3f7788d9	0.9669319
72	0x3f54a138	0.830585
73	0xc086330c	-4.1937313
74	0xbe0d212e	-0.13782188
75	0xc0038ec9	-2.05559
76	0xc1684aef	-14.518294
77	0x403d62e1	2.95916
78	0xc035e3ab	-2.8420208
79	0xbf9f1118	-1.2427092
80	0x3fa2a156	1.2705486
81	0xbfd10990	-1.6331043
82	0x3e4527de	0.1925349
83	0x4052b1e3	3.2921073
84	0x3fa2e9aa	1.2727559
85	0xc11a2297	-9.633445
86	0xc06bfe03	-3.6873786
87	0x3ef41fd4	0.47680533
88	0xc025b494	-2.5891466
89	0xc164406b	-14.265727
90	0xbf759494	-0.9592984
91	0xc05fbf80	-3.4960632
92	0x401e7a90	2.4762306
93	0xbe8ef54d	-0.27921525
94	0xc0caef5e	-6.3417196
95	0xc051e992	-3.279881
96	0x3f116406	0.5679325
97	0xc047d054	-3.1220903
98	0x4003bf68	2.0585575
99	0xbf397ab9	-0.72452885
100	0xc0a87fda	-5.265607
101	0x40b60d16	5.6890974
102	0x40eb8730	7.3602524
103	0xc16056ec	-14.021221
104	0xc04ff3b6	-3.24925
105	0x40a8a5a9	5.270222
106	0x405dfae5	3.4684384
107	0xbfc8c0ce	-1.5683839
108	0x3f884f19	1.0649139
109	0x4003d250	2.0597115
110	0xbf8d0df8	-1.1019888
111	0x3fe9b89d	1.8259465
112	0xbf8e0658	-1.1095686
113	0x400cf59b	2.2024906
114	0x3f909da0	1.1298103
115	0x403a5eb6	2.9120307
116	0x40609930	3.5093498
117	0x3f161a9a	0.5863434
118	0x3f994a01	1.1975709
119	0xbd38bdb8	-0.045102805
120	0x3f4f05c6	0.80868185
121	0xbe8f7a94	-0.28023207
122	0x400a7480	2.1633606
123	0xbe9bdc2a	-0.3044141
124	0x402c0284	2.6876535
125	0x402d9959	2.7124846
126	0xbf456b5a	-0.7711693
127	0x4004a046	2.0722823
128	0x3f267bee	0.6503285
129	0x3e005737	0.1253327
130	0x4085a686	4.1765776
131	0xc01cc02c	-2.4492292
132	0xbe292c24	-0.16520745
133	0xc01a2906	-2.4087539
134	0x41b18968	22.192093
135	0x3cd05df0	0.025435418
136	0xbf0e249c	-0.5552461
137	0x3f805176	1.002486
138	0x3feda32e	1.8565423
139	0xc1b1ac00	-22.208984
140	0x3fba28f0	1.4543743
141	0x3e5d90f4	0.21637326
142	0xc05687f0	-3.352047
143	0x3f4c32d1	0.7976504

gffs_blocks.1.fgsm.mask_maker.0.bias f4 [16]
0	0xbeb547bf	-0.354063
1	0x416541d1	14.328568
2	0x41578542	13.470034
3	0x416f7cd2	14.967974
4	0x415a626a	13.649027
5	0xc1c5c623	-24.721746
6	0xc0920801	-4.563477
7	0x412178a0	10.091949
8	0x4181eef7	16.241682
9	0x41742cea	15.260965
10	0x41b01f41	22.01526
11	0xbf3ede2e	-0.7455777
12	0x416f6add	14.96359
13	0x4184b9b3	16.590673
14	0xc002ceea	-2.043879
15	0x420584f0	33.37982

gffs_blocks.1.fgsm.mask_maker.1.weight f4 [16]
0	0x40347012	2.8193402
1	0x3fc8d7ca	1.5690854
2	0x3e6ffd00	0.23436356
3	0x3e71536f	0.23566984
4	0x3f044415	0.51666385
5	0x401a355a	2.4095063
6	0x403877b1	2.8823054
7	0x3fdf8063	1.7461056
8	0x3f53fddf	0.8280925
9	0x3fd8f324	1.6949201
10	0x3f8535b1	1.040701
11	0x40132991	2.299412
12	0x3eae2788	0.34014535
13	0x3ea0b782	0.31390005
14	0x40728a5f	3.7896955
15	0x3ff2722b	1.8941091

gffs_blocks.1.ca.ca.1.weight f4 [1, 16, 1, 1]
0	0x3e786161	0.24255897
1	0xbef613a9	-0.48061875
2	0xbf66aa40	-0.9010353
3	0x3e23fcc7	0.16014396
4	0x3f04f31f	0.51933473
5	0xbf3ca3c6	-0.736874
6	0xbdf453dd	-0.11930058
7	0x3df1d5d3	0.11808362
8	0x3e15374d	0.14571877
9	0xbec0e211	-0.37672475
10	0x3da57e36	0.080807135
11	0x3e7828f2	0.2423437
12	0x3f2bca9f	0.6710605
13	0x3f0c686d	0.5484684
14	0x3dbaf4e0	0.091287374
15	0x3dcbb3df	0.09946417

gffs_blocks.1.ca.ca.3.weight f4 [16, 1, 1, 1]
0	0xbfa20cfe	-1.2660215
1	0xbeb95514	-0.36197722
2	0xbfa9417f	-1.3223113
3	0x3f8bbb9a	1.0916626
4	0xbf6cdc05	-0.92523223
5	0xbf05103c	-0.51977897
6	0x3ea6ab3f	0.32552525
7	0x3eb849b1	0.35993722
8	0x3fe108fa	1.7580864
9	0xc00658ee	-2.0991778
10	0x3ff16632	1.8859313
11	0xbf3ad0c7	-0.7297482
12	0xbe3e533e	-0.18586442
13	0xbe94a2ed	-0.29030553
14	0xbfa8fb80	-1.3201752
15	0xbf3f05a8	-0.74618006

gffs_blocks.1.ca.ca.3.bias f4 [16]
0	0x3f193a58	0.5985465
1	0x3e1be446	0.15223798
2	0x3e339356	0.17536673
3	0xbeb2d56b	-0.3492845
4	0xbf20e601	-0.6285096
5	0x3d0781ff	0.03308296
6	0xbec01d87	-0.37522528
7	0xbe54a947	-0.20767699
8	0x3f033d66	0.5126556
9	0x3f9a7b5a	1.2068894
10	0xbee12d5b	-0.43979916
11	0xbea075d7	-0.31339905
12	0xbdd53929	-0.10411293
13	0xbed6082a	-0.41803104
14	0xbede90f8	-0.43469977
15	0xbf469dae	-0.7758435

gffs_blocks.1.prelu.weight f4 [16]
0	0x3df7962d	0.12089191
1	0x3f06b399	0.52617794
2	0x3d0908ba	0.033455588
3	0x3f81c3c5	1.0137869
4	0x3f473eed	0.7783039
5	0x3f41005d	0.7539118
6	0x3e52ebec	0.2059781
7	0x3f864c23	1.0491985
8	0xbd204780	-0.039130688
9	0x3f1aea8e	0.6051415
10	0xbe12bcb2	-0.14329794
11	0x3e840cba	0.2579096
12	0x3f6c4e35	0.92306834
13	0xbdc67c2d	-0.096916534
14	0xbf5c7a8f	-0.8612451
15	0x3ed85a68	0.42256474
