weights/SRGFS/X2/SRGFS-S_inference.pth (torch, 108252 bytes, 117 tensors)

feature_extra.0.weight f4 [16, 1, 3, 3]
00000000: 26af 91bc 60fd d83e 35bb 30bd 2e1a 433f
00000010: 3e7f 88bf 7cc9 4b3e 1325 a5be f681 5b3e
00000020: dc36 24be 08f1 c53d 0848 8dbe 3697 f13e
00000030: ec4a d23e cb83 2340 e0c4 1cbf 626d b63d
00000040: 7a96 ebbf 0bc8 613e 5de1 8f3e 874d e6be
00000050: 9e0b 1bbf 8cfb 2a40 7f99 90bf 25bf 93bf
00000060: 4de0 173f d97c 33be 2404 ffbd 786d 7f3d
00000070: 24e0 8cbe f0cf 05bc 180b ae3f c84b cebf
00000080: 3edb a63e 46ee 1cbe 9197 dc3e 931a 8fbe
00000090: 1a81 ecbc 6c69 533e cc32 5fbd 3077 a63d
000000a0: 3adb 01c0 c2d9 933e d413 c9bc ee88 c83d
000000b0: f023 a03b ac3a e63e 1c46 26bf 8445 35bd
000000c0: 4f7d 0fbf b668 883f d8d1 dabf a46c 39bf
000000d0: 51fa 78bf c652 113f 6c54 3cbb 01ad d63d
000000e0: 0026 77bb 64dc f23e 8efb d5bf fcff 3d3c
000000f0: b635 d13d a484 ed3e f0a4 693b c8f6 fcbd
00000100: 9030 4b3d 50c2 94bd 20a0 2b3f 9233 453f
00000110: aea8 47bf 84e2 81bc d08d 533d b399 edbe
00000120: 3391 19bd 78b1 e83f a8ee b43e 54dd 183d
00000130: 863b 7ebf 98d7 1abf de44 2bbd 7b5d 40bf
00000140: a601 45bc af1c 8b3b 76c3 7bbf c945 babc
00000150: f85a 03bd 7e86 aa3f 1485 b4bd 5c8b a93c
00000160: 8344 0dbe 6df8 c33d 6240 5d3e 6aa8 863e
00000170: 2677 abbe decb 49bf 46f5 0b40 08ed cebf
00000180: 4b99 323e c4d1 3cbe 84fd 253d 75cc c5be
00000190: c5da 8cbe c8fa 003c e0b5 163c 9346 c23f
000001a0: 7058 c8bd d700 a8c0 c054 313c 2e04 b4be
000001b0: 00f5 d53a 72ec d43f 1b6f a8bd 84cc f6bd
000001c0: cc1d 1ec0 d108 903e 3a0b 473d d834 df3e
000001d0: e975 1fbe 6a7d 98bd 3032 9f3b 7bba c83d
000001e0: edb5 463e 9a93 0cc0 34f7 893f a466 313c
000001f0: 8ccb 633e 0000 b035 1e0c 27bc 45bf e13d
00000200: b68a f9bf 3451 9ebe 8447 f43f 8ca8 90c0
00000210: 54da df3c 77a8 99be 8c61 b6bd bce2 50bf
00000220: 3c41 8a3e a5f9 4a3f 3609 f8bd 00b7 5f3f
00000230: 4814 4bbf 3cb2 a83e a88c 8d3c 9b4a 06bf
-0.017783713 0.4238081 -0.043147285 0.7621182 -1.0663831 0.19901079 -0.32254848 0.21436295
-0.16036552 0.09665114 -0.27594018 0.47185677 0.41072786 2.554919 -0.6123791 0.08907582
-1.8405297 0.22048967 0.28101626 -0.44981024 -0.605646 2.6716032 -1.1296843 -1.1542708
0.5932663 -0.17528094 -0.12451962 0.062360257 -0.27514756 -0.008167252 1.3597136 -1.6116877
0.32589144 -0.15325269 0.43084386 -0.27949962 -0.028870154 0.20645684 -0.054491803 0.08128202
-2.0290055 0.28877074 -0.024545588 0.09791742 0.0048870966 0.44966638 -0.6495073 -0.04425575
-0.5605058 1.0656955 -1.7095289 -0.724314 -0.9725695 0.5676693 -0.0028736843 0.104822166
-0.0037711859 0.4743377 -1.6717393 0.011596676 0.10215323 0.4639026 0.003565129 -0.12351757
0.04960686 -0.07263625 0.67041206 0.77031815 -0.7799176 -0.015855081 0.051648915 -0.46406326
-0.03749199 1.8179159 0.3533833 0.03732045 -0.99309576 -0.6048522 -0.041813724 -0.7514264
-0.012024319 0.0042453627 -0.98345125 -0.022738354 -0.032069176 1.3322294 -0.08814445 0.020696335
-0.13795666 0.09568868 0.21606591 0.26300365 -0.3348934 -0.788267 2.1868453 -1.6166086
0.17441289 -0.18439394 0.040524974 -0.3863255 -0.27510658 0.007872291 0.009198636 1.5177788
-0.09782493 -5.2501025 0.010823429 -0.3515944 0.0016323626 1.6634657 -0.08224317 -0.12050727
-2.4705687 0.28131726 0.04859469 0.43595004 -0.15572323 -0.07445796 0.0048582777 0.09801193
0.19405337 -2.196509 1.0778565 0.010827694 0.22245616 1.3113022e-06 -0.01019576 0.1102281
-1.9495456 -0.30921328 1.9084325 -4.5205746 0.027325787 -0.3001134 -0.08905324 -0.8159597
0.27002895 0.7928718 -0.12111132 0.8738861 -0.7932782 0.32948482 0.017278984 -0.5245759

feature_extra.0.bias f4 [16]
00000000: ea8b 6fbe beff aabe 6784 1c3e 571f 5a3e
00000010: 7243 003e 603b 68bd 2e63 2d3d a904 ce3e
00000020: a4bf aa3e b778 41be 5e0b 1a3e c81f 8dbc
00000030: c7bf 17bd 2196 3c3d a0f2 01bc eaee 7abf
-0.23393217 -0.3339824 0.15284882 0.21301018 0.12525728 -0.05669725 0.042330913 0.4023793
0.33349335 -0.18893705 0.15043399 -0.017227069 -0.037048128 0.04604161 -0.007931381 -0.98020804

feature_extra.1.weight f4 [16]
00000000: b4cc e4bd c95e 813f d9cb 813f 3ca9 183d
00000010: 46d1 d43c 483f 673e d930 903c b1b2 303f
00000020: fc8b 653f 4957 363d b2e0 5c3f b11c f0bb
00000030: 0e14 42bd 3b59 683a d63b 333c e6da 62be
-0.111718565 1.0107051 1.0140334 0.03727077 0.025978696 0.22582734 0.017601417 0.6902266
0.89666724 0.044516835 0.8628036 -0.007327639 -0.047382407 0.0008863394 0.010939559 -0.22153816

fnl_conv.0.weight f4 [4, 16, 3, 3]
00000000: 9a0c 9eba 2521 643b 0fd3 093a 746f d93b
00000010: 5bbf 183d 906b 21bb fc12 b8ba 82d3 40bb
00000020: 7010 c7ba 2e31 503a 0fab 423d 4a59 9d3b
00000030: f2e3 7e3c 4424 cfba 1912 94bc d691 17bc
00000040: 1c4c 24bd 4854 cf3a 5d39 37bb 6aec b8bc
00000050: a050 42b9 c020 d5b7 b44e 3d3c 5c6c ec3c
00000060: 366f f23a 3d1b 833c c0fc 123b 80c8 e738
00000070: dca6 8abb fe0c 4db9 9dbe b2ba 0205 5b3c
00000080: 2f27 c5bb 07f5 a5b9 4e47 49bb 72b9 b13a
00000090: b026 5239 484c 24bc c67b 613b 1ab5 973a
000000a0: 14f1 d03b 001b 1f3b 4eee 0fba 30b0 00bb
000000b0: 42cb d3ba f74a 803b 8829 94bc c0b5 a9ba
000000c0: a10f 00bc 1853 a5bc e793 2a3c 30a0 0d3c
000000d0: eac9 7e3c d01e 3fbb 2454 ad3b 3020 383a
000000e0: e296 86ba 41e2 493c ec97 0dbd 167e 073c
000000f0: c90f 33bb 4895 8abb 3bf5 5f3b e425 d13c
00000100: 02d4 1a3d 73b7 c8bb 6a01 be3b 5a91 0abd
00000110: 7262 71bb 2b0d b0bb c079 33bc b0a8 4b39
00000120: 186f 43ba 848f d0bb 806f 47bc d69c 763b
00000130: ad4d 00bd ba0d c83c 984d bd3b f5e5 6b3d
00000140: a891 063a ef90 36bb 9860 8fba fe00 6a3a
00000150: f948 0f3c 0831 ce3c 0f01 923b 5e50 97bb
00000160: 120b d2bc 2885 603a e528 513c a809 9c3c
00000170: df9d 32bb 1049 9d3c 9ccd 763c 4858 3cbd
00000180: 8de0 503b 3916 7ebc 00f0 76b8 c370 81ba
00000190: 6694 213c 0872 a3b9 a443 24bc 7906 3dbc
000001a0: 9a72 21bd 35f4 0e3c 1af1 ce3c 18ef 113c
000001b0: 3a72 8739 5bc6 c6bb 806c 0636 cc35 80b8
000001c0: b891 adbc 4939 023b a873 7c39 434c 983b
000001d0: c4ac daba 7e37 ba3a 7b5c 3ebb d9cc 88ba
000001e0: a0aa c8b9 ea6d d53c 1413 09bb de46 193a
000001f0: 0149 c8bb fc53 77ba be0b 3b3b f2d9 89bc
00000200: ecec a33b 34ff c7bd cc50 19bd 7e32 ce3c
00000210: 29bb 8c3c 9e86 863c 00df 1139 6f0e 9dbb
00000220: 84ae 8cba 3aa8 673b e4f3 bbbc babe 66bd
00000230: 3414 dd3c b377 983c 720b 6b3d d04a d03a
00000240: 6a0c f4b9 d8ed 073b 3255 7cb9 77c6 9dba
00000250: 18b3 f73c f5b1 543c 7d31 68bb 2197 9d3b
00000260: 33f8 aabb b42b 4a3b 70b0 143d 881c 3d3c
00000270: 2494 a1bc 4d17 6b3c 0646 183c 52c7 bfba
00000280: 579f 14bd 4411 bbbb 9de2 3c3a 7187 a2bb
00000290: 0054 f83b 1b06 183c 740e 48bc 2550 06bd
000002a0: 7d17 b83a 429d 813b 4b8e 7b3b 1ef8 5ab8
000002b0: a467 833b 6776 c1ba fc8f 6c3b d788 1ebc
000002c0: b0f4 303b 3a12 9737 2532 6e3a f949 cf3a
000002d0: acd2 8bba 5897 493b 8040 c0bb d0b7 14ba
000002e0: c42e 763b 3f21 083b aeb7 5439 23d7 1fbb
000002f0: 6059 c7ba b82f a9bb 74e6 183b c562 f8bb
00000300: 62a4 48bc bc90 ab3c b848 c7bc 20c8 dfb8
00000310: d8a0 a13c cbc5 b53b 4666 88bb d254 913b
00000320: 06f0 003c 3890 04bc f10d 073d 1ea1 acba
00000330: 6b19 13ba fa8e 17bc 6950 6139 c3cc 46bc
00000340: 2345 383d 778a 3d3c c0d1 b3bc 18aa e6bc
00000350: 0e25 37bb 7282 e1bb d885 09bc 388c e7ba
00000360: 16fd 8f3b 3607 9bbb fe14 c3bb a0fe 13bc
00000370: 8d77 cabb 36cd 85bb 67f8 6fbb 78ea 4c3d
00000380: f085 aa3b c639 f8b9 36e5 68bb 3f12 31bb
00000390: 5d2f 3abb 760b 493d 0890 9f3b c489 a6ba
000003a0: 1c3f cdbc b223 d7bb 84bc 2cbc 347b 403b
000003b0: 88d6 05bb e28c aebc a09e f4bc 529b e03c
000003c0: 3c2e 2e3b a661 9f3a b653 84ba cbaf 673c
000003d0: b5ae f1bc e9df a43a 7743 c03c 63ed 6fbd
000003e0: b0f9 0cbd 08a7 f93a 1a0c aa3c 2083 9e3c
000003f0: 4477 873a cc1c a8bb 8cc7 d1b9 d257 d23a
-0.0012058199 0.0034809795 0.00052575854 0.0066356007 0.037291866 -0.0024630763 -0.0014043744 -0.0029422943
-0.0015187394 0.00079418987 0.047526415 0.004801904 0.015557276 -0.0015803655 -0.018075036 -0.009251079
-0.040111646 0.0015817964 -0.0027957775 -0.022573669 -0.00018531317 -2.5406829e-05 0.011554409 0.028860264
0.0018496278 0.0160042 0.0022428483 0.000110522844 -0.004231317 -0.00019555163 -0.001363713 0.013367893
-0.006016634 -0.00031653812 -0.0030712667 0.0013559295 0.00020041573 -0.0100279525 0.003440605 0.0011574358
0.006376395 0.0024277568 -0.0005490527 -0.0019636266 -0.0016158598 0.0039151865 -0.01808621 -0.0012947842
-0.007816226 -0.020181224 0.010411239 0.008644149 0.01555107 -0.0029162653 0.0052895714 0.0007023839
-0.0010268355 0.01232201 -0.034568712 0.008269807 -0.002732264 -0.0042292215 0.0034173268 0.025530763
0.037799843 -0.0061253845 0.0057985084 -0.033830024 -0.003683236 -0.0053726635 -0.01095432 0.0001942243
-0.0007455214 -0.0063647646 -0.01217258 0.0037630103 -0.031324077 0.024420608 0.005777072 0.05759235
0.0005133399 -0.0027857383 -0.0010938821 0.00089265394 0.008745425 0.025169864 0.0044556926 -0.004617735
-0.025640044 0.00085647637 0.012766098 0.019047573 -0.0027254743 0.019199878 0.0150636695 -0.04598263
0.0031872124 -0.015508228 -5.8874488e-05 -0.0009875525 0.009862041 -0.00031174743 -0.010025892 -0.011537188
-0.039415933 0.008725216 0.02526145 0.008907102 0.00025834312 -0.0060661263 2.0030711e-06 -6.113536e-05
-0.021187648 0.001987057 0.00024075678 0.004647763 -0.0016683568 0.0014207212 -0.0029046822 -0.0010437026
-0.00038274098 0.026053388 -0.0020915912 0.0005847047 -0.0061122184 -0.0009434817 0.0028540934 -0.016827557
0.0050026085 -0.09765473 -0.03743057 0.02517056 0.017179089 0.016421612 0.00013911352 -0.0047929804
-0.0010733162 0.0035348074 -0.022943445 -0.056334235 0.026987173 0.018611765 0.057383962 0.0015891436
-0.00046548556 0.002074113 -0.0002406433 -0.0012037297 0.030236766 0.012981881 -0.0035429888 0.0048092757
-0.005217576 0.0030848803 0.036301076 0.011542447 -0.01972396 0.014348817 0.009294039 -0.0014631546
-0.03628477 -0.0057088453 0.0007205399 -0.0049599935 0.007578373 0.009278799 -0.012210477 -0.032791276
0.0014045086 0.003955514 0.0038384374 -5.2206327e-05 0.0040101577 -0.0014760018 0.0036096564 -0.00967618
0.0027001314 1.800909e-05 0.00090864516 0.0015814892 -0.0010667644 0.0030760374 -0.005867064 -0.0005673142
0.0037564496 0.002077177 0.00020286322 -0.0024389706 -0.0015209131 -0.005163159 0.002333072 -0.0075801336
-0.012246223 0.020943038 -0.024326667 -0.00010670745 0.019730017 0.0055472604 -0.0041625826 0.00443516
0.007869726 -0.008091025 0.03297228 -0.0013170575 -0.00056113926 -0.009250397 0.00021487627 -0.01213378
0.04498781 0.011568657 -0.021950603 -0.028157279 -0.002794567 -0.0068820054 -0.008393727 -0.001766569
0.004394184 -0.004731084 -0.00595343 -0.009032875 -0.0061788023 -0.004083301 -0.0036616565 0.050028294
0.005203955 -0.0004734529 -0.003553701 -0.0027018932 -0.0028409578 0.049083196 0.004869465 -0.0012705852
-0.025054507 -0.0065655345 -0.0105429925 0.002937031 -0.002042206 -0.021307413 -0.029860795 0.027417812
0.002657785 0.0012159839 -0.0010095749 0.014141033 -0.029502252 0.0012578937 0.02346967 -0.058576
-0.034417808 0.0019046972 0.020757724 0.019349635 0.0010335227 -0.005130386 -0.0004001226 0.0016047901

fnl_conv.0.bias f4 [4]
00000000: 085c 273c 63ac 3bbb 184a cf3a 0b0c 0abc
0.010214813 -0.0028636686 0.0015814928 -0.008425723

gffs_blocks.0.conv.weight f4 [8, 16, 3, 3]
00000000: 0dd8 893f a1ad 9c3f d84e 9ebf 78f8 96be
00000010: 6a7a 32c0 e458 72c0 aa9b 2dbe 662f 8dbf
00000020: 38a1 d9bf 24e8 123e 0baa 62bf f03d a0ba
00000030: 8807 673e fe62 f2bd 0768 44bf 36b6 983d
00000040: 959a 703d fae0 d1bc 9b35 123e f7f7 9dbd
00000050: 489c 36be cc2e 803d 2e3d 50be 2cc2 133e
00000060: a0c8 2cbf 50ba 5e3e ab35 1ebe 05aa 6abe
00000070: fc18 4fbe 4286 fe3d e855 d7bd 0f38 8bbe
00000080: 754a 093f 29e7 b7bf 8ace 893e 03d5 153d
00000090: e5a9 463f d824 9bbf 90ab 1a40 a07f 0cc0
000000a0: 70ef 3e40 685a 1d41 f9d1 aabf 9d62 8cbf
000000b0: 34da 2bc0 042a fb3e 3984 9bbe 38d8 953e
000000c0: 7051 76bf 05ca 4cc0 1b72 a6be 74a8 1540
000000d0: d031 da3d 9033 0dc0 d632 9d3e 3ebf 17be
000000e0: 3f59 bfbe c87d cdbd c0a5 5c40 f815 4f40
000000f0: 0af5 3d3f 2d25 163e 7e23 e7bd 6262 67be
00000100: e8da 10bf 0acc 2d40 04f0 b13d 689c a1bd
00000110: 2ccb db3d 66f7 433d 6238 89bd 4225 b6bd
00000120: 21f1 38bd a949 9dbe 1400 e23d 10a4 6c3d
00000130: ad08 a73e fe13 653f 89b6 b8be bdef 6ebe
00000140: f5f4 ff3e ccbd 273e c772 c4bd 42b8 c0be
00000150: 7bd4 f03d b3ad 2f3f f689 063f e4b5 113d
00000160: 00c1 b0bc b412 a4bf adeb 74bd 00f0 3f3e
00000170: 602c ae3e 3ccf 5c3e b3e5 3bbe 4a11 e9bf
00000180: 5bb7 0bbe d52c d6bd 74e8 c9bd 772b 9cbe
00000190: 4669 9f3d 90ae af3f 7048 ac3e 38f2 2b3d
000001a0: e404 eabf f860 763e 98dc 693d 2ee3 b840
000001b0: 1af2 85bd 94a9 92bc 6ba8 54be 77e1 f83e
000001c0: dc3b 123f 2303 ae3f 7603 c43e 706a 62bd
000001d0: efd2 13bf 9fa2 e2be 3ff0 2ebf 6c69 403e
000001e0: a1f6 893e 9f71 93bf 9c6d 9d3f 4353 1cbf
000001f0: b3f1 00bf 5678 8abd 54e0 573f 6ae0 e4be
00000200: e2f1 7d3f a8c8 8040 a4e5 83bd 6234 f63e
00000210: e11e 4abf f3c2 81bf dbf5 c23d 4d98 9bbe
00000220: c80e 313f 451b 0cbe 3e67 b2be f1bd 793f
00000230: 9ef3 67bf 89a8 8ebe 5ac4 943f 1838 873f
00000240: 00d8 32bd 8845 ddbf 2850 0dc0 837b a23f
00000250: e4af a840 36db 373f 2f16 e33f 98ba fe3f
00000260: 0833 a63f 0d41 40bf cebc 483e a8a6 aa3e
00000270: 44b0 29bf 54db 93be b20f d03f c96b acbe
00000280: 966e ab3e 16a8 153e 1e12 92bd 48f5 f2bd
00000290: 6c60 83bd 6c2b 6ebd 2a35 23be 13c2 94bd
000002a0: 8af3 0abf 9671 a1bf 4915 93bc 02c4 ff3d
000002b0: 1898 52be df7c f53e f041 dc3e 5d73 463f
000002c0: 92e6 0ebf 0213 a2bf 2b3b a2c0 249e 873c
000002d0: e67c a4bf 9308 433e 0cd4 193f 58b2 08c0
000002e0: edeb 0cc0 d2e9 5b40 f08b 8ebe 4ca0 86bf
000002f0: 2428 15bf 4037 663f 9649 c7be 510a 84be
00000300: f835 0940 a303 4dc0 e51c dabe 6f12 fabe
00000310: f878 70bf ed85 87bf 24ad 113e c69b eebd
00000320: 2880 debe 0cf0 4f3f 2f31 073f 46af 153f
00000330: d596 9d3e b8ea 223f 7bae cfbe d908 c1be
00000340: d458 2c40 6255 cebe 98c6 ab3d 86e1 973d
00000350: 6028 8ebc b433 dfbc 5836 3f3d 4e9d 983c
00000360: a6e6 8dbe 1c2d d6bd ae86 5e3e fe75 b23f
00000370: 9c84 58be 6bfa 26bf 9531 4c3e 3b21 40be
00000380: c28e c9be e993 32be 7ec2 acbe b02f ed3e
00000390: 72bb 523e 0026 31bf 3db3 743f 4a7f 113f
000003a0: e617 273f 070d bebf 876c 19be 862a dc3e
000003b0: 4b9d 693e 74f0 c43e cc74 28c0 a003 9cbf
000003c0: 68f4 803e 7a08 45bf e034 b13e 3ae8 54be
000003d0: 17c5 93bf ca85 2c3f 62c5 4bbf 2efe d5bf
000003e0: 0a94 3bc0 2afe d0be b001 97bf fcff 9140
000003f0: 042e 9c3d 7c48 4ebf 4e8c 2fbe c5f9 73bd
1.0769058 1.2240487 -1.2367811 -0.29486442 -2.7887216 -3.7866755 -0.16953912 -1.103009
-1.7002325 0.14346367 -0.88540715 -0.001222549 0.22561467 -0.118352875 -0.76721233 0.07456629
0.05874117 -0.025619972 0.14278261 -0.07713311 -0.17833054 0.06258926 -0.20335838 0.1442954
-0.6749363 0.2175076 -0.1545016 -0.2291642 -0.20224375 0.124279514 -0.10514432 -0.27191207
0.5362924 -1.436742 0.2691539 0.036580097 0.7760299 -1.2120619 2.4167213 -2.1952896
2.983364 9.834572 -1.3345329 -1.0967594 -2.685193 0.49055493 -0.30374315 0.29266524
-0.96218014 -3.1998303 -0.3250893 2.3384066 0.10654032 -2.2062721 0.30702847 -0.14819047
-0.37372777 -0.100337565 3.4476166 3.2357159 0.74202025 0.14662619 -0.112860665 -0.22596124
-0.56584024 2.7155786 0.086883575 -0.0789116 0.10732111 0.04784336 -0.06700207 -0.08893825
-0.045151833 -0.3072026 0.11035171 0.05777365 0.32623807 0.8948363 -0.36076763 -0.2333364
0.49991575 0.16380996 -0.095922045 -0.37640578 0.117592774 0.6862442 0.5255426 0.035573855
-0.021576405 -1.2818208 -0.05979507 0.18743896 0.3401823 0.21563429 -0.18349342 -1.8208401
-0.13644163 -0.1045777 -0.0985879 -0.3050191 0.07783751 1.3725147 0.33649015 0.041979045
-1.8282743 0.24060428 0.05709514 5.777732 -0.06540318 -0.017903127 -0.20767371 0.48609516
0.5712259 1.3594707 0.3828389 -0.055277288 -0.57743734 -0.44264695 -0.68335336 0.18790215
0.26945975 -1.151905 1.2299075 -0.6106455 -0.50368804 -0.067612335 0.8432667 -0.44702464
0.9919721 4.024494 -0.06440285 0.4808684 -0.7895337 -1.0137619 0.095195495 -0.30389634
0.6916318 -0.13682278 -0.34844393 0.9755545 -0.90606105 -0.27862957 1.1622422 1.0563993
-0.043663025 -1.7286844 -2.2080173 1.2693943 5.271471 0.71818864 1.7741145 1.9900694
1.2984324 -0.7509926 0.19603273 0.33330274 -0.66284585 -0.28878272 1.625479 -0.33675984
0.33482808 0.14614901 -0.07132362 -0.1186319 -0.064148754 -0.05814688 -0.15938249 -0.07263579
-0.5427786 -1.2612789 -0.017954485 0.124885574 -0.20565832 0.47946832 0.43019056 0.7751978
-0.5582057 -1.2662051 -5.0697227 0.0165549 -1.2850616 0.1904624 0.6008918 -2.1358852
-2.2018998 3.4361463 -0.2784114 -1.0517669 -0.58264375 0.89928055 -0.3892333 -0.2578912
2.143919 -3.203347 -0.4260017 -0.4884219 -0.93934584 -1.0587746 0.14226204 -0.11650805
-0.4345715 0.8122566 0.52809423 0.5847057 0.30779138 0.636394 -0.40562806 -0.37702063
2.6929216 -0.40299517 0.08387488 0.07416062 -0.017353237 -0.027246334 0.046682686 0.018629696
-0.27715033 -0.10457823 0.21731064 1.3942258 -0.21144336 -0.6522586 0.19940789 -0.18762676
-0.39366728 -0.17439236 -0.33742136 0.46325445 0.20579317 -0.6919861 0.95585996 0.5683485
0.6527084 -1.4847726 -0.14982806 0.43001193 0.22813909 0.384647 -2.6321287 -1.2188606
0.25186467 -0.7696606 0.34610653 -0.20791712 -1.1544522 0.67391646 -0.7959806 -1.6718194
-2.9309106 -0.40818912 -1.179739 4.562498 0.07625964 -0.8057935 -0.17143366 -0.05956437

gffs_blocks.0.conv.bias f4 [8]
00000000: 0945 993f 76c7 3f3f 1412 cabd 2454 593f
00000010: 4a64 eabe 9df2 f73d a81d b5bf 6497 e2bf
1.1974193 0.7491373 -0.098667294 0.84894013 -0.4577964 0.12106822 -1.4149675 -1.7702451

gffs_blocks.0.conv_skip.weight f4 [8, 16, 1, 1]
00000000: 76c4 bfbf 7b6b d0be 4716 983e eaff 55bf
00000010: 8a4d 1d40 5c53 7e3f 76b6 b73f 7d81 e23d
00000020: 76ae 533f 6d3c 84bf 82d5 31bc 2f32 03bf
00000030: 8397 d03e 503c f33e 22ac c6bc c85c 5d3e
00000040: 76b7 933f ce59 8abe 53b8 9fbf fab5 793f
00000050: cb69 2cc0 195d edbe b823 013f 8fe1 afbf
00000060: dee9 a43c f92c cc3e fff5 d3bf 5d2b 6abf
00000070: f048 07bf 2e68 78bf 4b53 1440 e7b7 593f
00000080: ad90 89be e48b 01bf 51d1 f63c f7c1 a13f
00000090: 4809 3940 3c7b 28bf 9579 a53e 6a72 863c
000000a0: 5e93 da3e eecc 603f ea5e 843d af12 ad3f
000000b0: 3771 7d3f b62b 683f 4c76 c6be 0ec6 fc3d
000000c0: 1a44 c0be 5afa 203f a6f3 cfbe 5b8f 1cbf
000000d0: 2af9 e7bf 5487 15bf a660 043f dbe0 4e3e
000000e0: 81da 7ebf cfb3 853d 5e70 4d3e b2c6 57bf
000000f0: f86a 0f3f e51f 1dbf 2877 883f e20e 13be
00000100: 4f64 323f 0855 70be c0fa d73f 00a7 ae3f
00000110: 4b99 49bd 3e13 083e 9893 a0bc 5825 433e
00000120: 83af a23e 5d7d 2ebe ee0b 35bf a395 f53e
00000130: 3524 043e b3a6 ecbd 0fc1 943d f3c3 96be
00000140: 9c46 5fbe 7936 373f 9bc4 803c 68e9 5ebf
00000150: 1b23 bbbf 5ed3 bcbe 3a00 81bf faca 793e
00000160: 7b1a 25bf efd9 e73d eefb 6f3f b744 a3bf
00000170: 635d 0c40 0eed 09bf 099d 76bf 1587 53bd
00000180: acaf a0be 83cc edbe fe04 95be 231d 063e
00000190: 53c4 77bf 67f9 b93e 90d3 9f3c e08c 35bd
000001a0: b483 763f 4ee9 993f 0438 40bd d1b9 7d3f
000001b0: 4888 2ac0 a11a 933e 91e0 04c0 7869 8b3e
000001c0: 29cf fd3f 3090 2f3f 7b1a 073e e9a7 6fbe
000001d0: 1682 c0bf 7881 78bf c23b 7b3f 6c9f 1e3f
000001e0: f503 b2be 7e26 293f f4ff 463e 59e1 01c0
000001f0: 51d0 aabf acf0 c3bd 0f1c 923d 4de0 5fbe
-1.498183 -0.40707 0.29704496 -0.8359362 2.4578576 0.99345946 1.4352558 0.11059854
0.8268808 -1.033094 -0.010854127 -0.5124845 0.40740594 0.47506952 -0.024252001 0.21617424
1.1540363 -0.2702164 -1.2478126 0.975433 -2.693957 -0.4636009 0.5044513 -1.374071
0.020131048 0.3987806 -1.6559447 -0.9147242 -0.5284567 -0.97033966 2.3175838 0.8504624
-0.2686819 -0.5060408 0.030129107 1.2637318 2.8911915 -0.6581304 0.32319322 0.016411979
0.42690557 0.878127 0.06463416 1.3521327 0.9900088 0.906917 -0.38762128 0.123424634
-0.37551957 0.62882006 -0.40615577 -0.61156243 -1.8122914 -0.5840962 0.51709974 0.20202963
-0.9955216 0.065284364 0.20062396 -0.8428756 0.56022596 -0.6137679 1.0661364 -0.14361146
0.6968431 -0.23469937 1.6873398 1.3644714 -0.049218457 0.1328859 -0.019601628 0.19057214
0.3177453 -0.1704001 -0.7072133 0.47965726 0.12904437 -0.11555233 0.072633855 -0.29446372
-0.21804279 0.71567494 0.015718749 -0.870749 -1.4620088 -0.3688001 -1.0078194 0.24393836
-0.6449353 0.113208644 0.9374379 -1.2755345 2.1931999 -0.5387734 -0.96333367 -0.051642496
-0.31384027 -0.46445093 -0.2910537 0.13097052 -0.9678394 0.3632309 0.01951006 -0.044323802
0.96294713 1.2024324 -0.04692842 0.9911166 -2.664568 0.28731254 -2.0762064 0.27228904
1.9828845 0.6857939 0.13193695 -0.23403896 -1.5039699 -0.97072554 0.9813806 0.6196201
-0.34768644 0.6607436 0.19433576 -2.0293791 -1.3344823 -0.09567389 0.07134258 -0.21862908

gffs_blocks.0.conv_skip.bias f4 [8]
00000000: 6c4f 263f 9a8a f83d 3458 02be 3f8f 5f3e
00000010: 2a2c 01be 91d0 3d3d 87cb 453d c9aa 08be
0.6496494 0.12135811 -0.1272896 0.21831988 -0.12614504 0.046341483 0.048289802 -0.133464

gffs_blocks.0.depth_wise.weight f4 [8, 1, 3, 3]
00000000: 7422 b2bd 7f8f 2a3d 4f35 ccbd 4c45 543e
00000010: 4bba f43e 85b3 2bbd 4fa2 933d 4f35 1f3e
00000020: 281e 54bd 0c20 70bd fce4 c63b 5524 98bd
00000030: e05c b8be ecd5 df3f 34ab bebd c791 b9bd
00000040: ed17 a5bd 6b33 4c3c b429 a1bd cc7f bb3e
00000050: 8360 9ebd 0025 23bf 7d2c 923e 495d 363e
00000060: 725d a8be 844d 27be 1f6b 073d d5bf d43d
00000070: 27b2 c2be 6df1 553e 7c4d 433e 3a0f 67bf
00000080: 6642 133d 2a55 e73d 9a69 a53e 7633 fa3d
00000090: 8d87 ed3b 7c67 453d 7dad 98bd 8e57 96bd
000000a0: 3b5a d93b a123 4cbf 9840 953d 2473 77bd
000000b0: 042f 643f fac0 b83e 3f75 553f 7a7d b33e
000000c0: d84b cb3e f3d4 96bf 62fa 003f 6620 23bc
000000d0: b904 99be 7da1 4a3d c77e 083d 299c 77be
000000e0: 496a 0c3c c558 78bd 12e2 823f de7d 793c
000000f0: f869 24bd dfb6 73bc ee56 73bd 910a adbe
00000100: dcb5 0fbf df17 7dbe 870e 323e 3510 1d3f
00000110: 370d adbc 3024 88bd 8d04 9f3e 803d 383d
-0.08697978 0.041640755 -0.09971105 0.2072956 0.4779838 -0.04191925 0.07208692 0.1554768
-0.05178657 -0.058624312 0.0060697775 -0.07428805 -0.36008358 1.7487159 -0.09309998 -0.09061008
-0.08061204 0.012463431 -0.07869282 0.3662094 -0.07733252 -0.6372833 0.28549567 0.17809023
-0.32883793 -0.16338164 0.033061143 0.103881516 -0.38026544 0.20892878 0.19072527 -0.9025761
0.035951994 0.11295541 0.3230713 0.12216847 0.007248825 0.048194394 -0.07454965 -0.073409185
0.0066330708 -0.79741865 0.07287711 -0.06041254 0.8913424 0.3608473 0.8338203 0.3505667
0.39706302 -1.1783737 0.50382054 -0.009956455 -0.29886416 0.049470413 0.03332403 -0.24180664
0.008570262 -0.060631532 1.0225241 0.015227763 -0.040140122 -0.014875143 -0.059409074 -0.33797124
-0.5613687 -0.24716137 0.17388354 0.61352855 -0.021124465 -0.06647527 0.3105816 0.044980526

gffs_blocks.0.depth_wise.bias f4 [8]
00000000: bd73 b7bf 45fb 233f 36c3 bc3d b929 a5be
00000010: 5cc5 5bbc 12ff a73e 739a fa3e 35c0 51bd
-1.4332196 0.6405528 0.09216921 -0.32258394 -0.013413753 0.3281179 0.4894596 -0.051208694

gffs_blocks.0.fgsm.fusion.0.weight f4 [1, 16, 1, 1]
00000000: 490d 4e3f 1921 583f b5ad 94be 8506 08bf
00000010: 7d67 df3d ad54 11c0 5ece 1b3f eeb9 103f
00000020: 25ea 4cbe 7088 a43e ce93 013f bac0 47bf
00000030: 5566 613e 5595 bd3e c6f2 bdbd 1296 5b3f
0.8048902 0.84425503 -0.29038778 -0.5313495 0.10908411 -2.2707932 0.60861766 0.56533706
-0.20011194 0.32135344 0.5061616 -0.7802845 0.22011693 0.37027994 -0.09274821 0.85775864

gffs_blocks.0.fgsm.mask_maker.0.weight f4 [16, 1, 3, 3]
00000000: 35b9 993f ce80 863f d647 2cbf fd4f 3bc0
00000010: 265f c741 534c 313f 16af 56c0 d805 603f
00000020: 01dc dd3f e012 7cbe ab80 1b41 50af b23d
00000030: 280a 0240 68cc 93c0 c844 903f e481 6340
00000040: d337 9b40 ca68 b53f bc1d 20c1 053a c0c1
00000050: 424a bdc1 8299 4f40 50ae aa41 861e 1ec1
00000060: 871f 3cc0 60ae e33d 7bd1 dbc0 64f7 30c1
00000070: e332 8d40 6c92 e3c1 e8f6 5cc0 5ca7 8b41
00000080: 082f bfbd 3073 72c0 123c 8140 1cb4 89c0
00000090: 5c22 a13f f01e eb40 3f4b 94bf 9463 e840
000000a0: 6965 11c2 c4bf 8e40 4600 8d3f e8d6 40c1
000000b0: 0448 a7c0 3235 e3c0 5492 98c1 043e 82c1
000000c0: d05c 3f40 fb38 e240 01aa f73f c905 94c0
000000d0: a6d0 00c1 ded6 b13d 2846 6941 de4e 1b40
000000e0: 90be 0140 8fb2 73c0 2f69 bfc1 447b 4640
000000f0: 840b 1fc0 15fc c2c0 887a 45be ec2b 5bc1
00000100: ca29 32c0 56c0 a2bf ee04 1ac1 943e cf41
00000110: 957b b9c0 dace c8c1 7d40 6dc1 0808 9bbf
00000120: e162 53bf 631c ba40 4e6e 1bc0 2a88 0540
00000130: 5c97 3fbe c073 5040 a488 2b40 c07f df3f
00000140: 9b49 2fbf 02ca f4c0 4a9a f4c1 0638 cbc0
00000150: 04bc ad40 04d0 eb41 890b 0d40 9edc c23f
00000160: 5ec1 3c41 2a81 2140 dc7f e23f 0cb5 3541
00000170: 401e 05c1 9e5b d3bf 0663 68c0 79e2 2f40
00000180: f215 4e40 5afd bb40 e427 0fbf 9154 06c1
00000190: d4e3 00c1 de69 b7c0 6af8 58c1 54ee ebbe
000001a0: 9c66 e1bf 769e b4c0 b8b0 9541 ac3b 4f40
000001b0: b834 d4c1 3393 b840 66f0 19c1 5673 cac1
000001c0: cc93 aa41 2ed6 15c1 7861 6fc0 83d9 2241
000001d0: c839 7a40 8d56 3ac0 90d9 de40 f44d bf3f
000001e0: b20d 07c0 84da 56c2 e959 e841 2162 8c40
000001f0: aefe dac0 5e69 9140 48c1 3f41 dcb7 13c1
00000200: b140 05c1 a13d 08c1 7283 87bf 48fe aebf
00000210: 775e 3941 c2df 5441 fdf0 a040 72a0 1c40
00000220: 8edc b2c0 ad06 ba40 149a e3c1 7596 e341
00000230: 89f8 92c0 5b1e 00c1 306b a240 7117 83bf
1.2009646 1.0508058 -0.6729711 -2.926757 24.92146 0.69257087 -3.3544364 0.87508917
1.7332765 -0.24616575 9.718913 0.087248445 2.03187 -4.618702 1.127099 3.554803
4.8505645 1.4172604 -10.007259 -24.02833 -23.661259 3.2437444 21.335114 -9.882452
-2.9394243 0.11117244 -6.8693213 -11.060398 4.4124618 -28.446495 -3.45257 17.456718
-0.093351424 -3.7882805 4.038583 -4.303236 1.2588611 7.3475266 -1.1585463 7.2621555
-36.349033 4.460909 1.1015708 -12.052467 -5.227541 -7.1002436 -19.07145 -16.280281
2.9900398 7.0694556 1.9348756 -4.625706 -8.05094 0.08683561 14.579628 2.4266887
2.027256 -3.8077734 -23.92636 3.1012735 -2.4850779 -6.0932717 -0.19285023 -13.698223
-2.7838006 -1.2714946 -9.626204 25.905556 -5.7963357 -25.101002 -14.828244 -1.2111826
-0.8257275 5.815965 -2.4286075 2.0864358 -0.18710083 3.2570648 2.680215 1.7460861
-0.6847169 -7.649659 -30.575336 -6.350589 5.429201 29.47657 2.203829 1.5223577
11.797209 2.5235085 1.769527 11.356701 -8.319885 -1.6512334 -3.631044 2.7481978
3.2200894 5.8746767 -0.55920243 -8.395646 -8.055622 -5.7316732 -13.560648 -0.46080267
-1.7609439 -5.6443434 18.711288 3.238017 -26.525742 5.7679687 -9.621191 -25.306316
21.322166 -9.36479 -3.740324 10.178103 3.9097767 -2.9115326 6.964058 1.4945664
-2.110211 -53.713394 29.043901 4.3869786 -6.843589 4.544112 11.984688 -9.232388
-8.328294 -8.515046 -1.0586989 -1.367135 11.585563 13.304628 5.0294175 2.4472928
-5.589423 5.813315 -28.450233 28.448465 -4.592839 -8.007411 5.0755844 -1.0241529

gffs_blocks.0.fgsm.mask_maker.0.bias f4 [16]
00000000: 458e 95c2 7af3 1741 f6f2 9d41 92c0 4341
00000010: 41f7 5042 a102 f541 16f7 5642 5df1 4f41
00000020: 0753 df40 7b5f e9c1 b28b 5f41 7153 9141
00000030: 1c15 1e3e 2c86 9441 8208 023f ed35 adc1
-74.77787 9.4969425 19.743633 12.234514 52.24146 30.626284 53.741295 12.996427
6.978885 -29.171621 13.971605 18.165743 0.1543774 18.565514 0.5079423 -21.65133

gffs_blocks.0.fgsm.mask_maker.1.weight f4 [16]
00000000: 49cb 8840 282b 573e e6da d53f d08e da3f
00000010: 1820 dc3f e373 3240 1d89 3640 7207 1740
00000020: 9478 823e dc83 7940 98d5 773f abfe 0440
00000030: 53f7 4240 36e9 b240 ae87 0a40 3498 6b3f
4.274815 0.21012557 1.6707428 1.7074833 1.7197294 2.7883232 2.8521187 2.3598294
0.2548262 3.898673 0.96810293 2.0780437 3.0463455 5.590968 2.1645312 0.9202912

gffs_blocks.0.ca.ca.1.weight f4 [1, 16, 1, 1]
00000000: 2f0e fd3e c596 a9bd 2a56 abbe 689a 733f
00000010: 6fcb b7be 0f00 ec3e 5d1e 79be 31a0 343f
00000020: 0128 333f c20e 31be d90e 993e 14eb 273e
00000030: 382a a3be e294 113e aec5 673c 0b89 71be
0.49424884 -0.0828071 -0.33464175 0.9515748 -0.35897395 0.46093795 -0.24327989 0.7055693
0.69982916 -0.17290786 0.2989414 0.16398269 -0.31868148 0.1421695 0.014146252 -0.23587434

gffs_blocks.0.ca.ca.3.weight f4 [16, 1, 1, 1]
00000000: 6397 fdbf e690 873e 8401 293c ee21 debd
00000010: 9425 96be f9b0 fa3f 1e31 4abd 840b 95be
00000020: 8bb8 833f 391f a13d 5a2f f1be 4c84 a5be
00000030: 1fa7 26be 21da 4dbe ed13 2e3e 788f f4be
-1.9811825 0.26477736 0.010315303 -0.10846315 -0.29325545 1.9585258 -0.049363248 -0.29110348
1.0290693 0.078672834 -0.4710644 -0.32327497 -0.16274689 -0.20102741 0.16999789 -0.47765708

gffs_blocks.0.ca.ca.3.bias f4 [16]
00000000: 0aca 85bd 07d1 e3be 43db 543d ca36 fd3d
00000010: 754f 5a3f 7f5f bf3e 56f4 643e 9427 ab3d
00000020: 6521 923e eea8 99bd d516 273f 911e 06bf
00000030: b785 59be 2a63 98be d0b2 43bf b683 36be
-0.065326765 -0.44495413 0.051966917 0.12363966 0.8527749 0.37377545 0.22358832 0.08357158
0.28541103 -0.07502924 0.65269214 -0.5239039 -0.21242414 -0.29763156 -0.7644472 -0.17823681

gffs_blocks.0.prelu.weight f4 [16]
00000000: 1a3f eebf dae6 493e 1302 b1bf c059 073f
00000010: 6f9e be3e baaf a93e 9faf d6be 13b0 793f
00000020: b6f5 2f3f 06ec 82be 296d 393f d800 063e
00000030: 0858 bdbe 4a38 3d3f 0467 48bd 8aeb 893f
-1.8613007 0.19716969 -1.3828758 0.5287132 0.3723025 0.3314188 -0.41930863 0.9753429
0.687343 -0.25570697 0.7243219 0.1308626 -0.36981225 0.73914015 -0.04892637 1.0775006

gffs_blocks.1.conv.weight f4 [8, 16, 3, 3]
00000000: f96f afbe 57cd 143f 0884 b63e b82d 43bf
00000010: 0e75 2f3e 5e5b 79be ce54 243e 66fb d0be
00000020: d269 8a3e f0e1 01bf f8c8 bbbd 5ad1 19bd
00000030: a0a5 f23b 8afe 0f3f 6adc 2dbd 1c33 37be
00000040: f4af 53be d209 363e 6c85 053e 5060 80bd
00000050: 1038 28be 6ecc 923e 3696 453e fe7b b83d
00000060: a570 073e 4967 13be 463d 2cbe cc53 db3e
00000070: 24be 5c3d 5a38 703c 3348 3dbe 5837 113c
00000080: d008 893e 9ec2 ec3d dad1 48be 3680 133e
00000090: 1020 353e 20a8 14be c36e ff3d b469 ff3c
000000a0: 24fc 873e 2c4e fe3f bb83 e33d 1200 473e
000000b0: 441b ef3d 4eb8 9dbd 1993 0ebd f856 f93d
000000c0: a05b f3bc 1a9c bcbe 4a97 f33e a077 dc3d
000000d0: 805c 833e d88f 8abc 8e9c 3cbe a441 0abe
000000e0: 593d 4b3e 06ea d83e e570 6e3f 1828 de3e
000000f0: 4476 0dbd 7c21 35bf feec 363f 6b78 63be
00000100: 5819 1dbc 26a4 0bbd 9f81 5bbd b405 33be
00000110: 5676 1b3e 5a50 2d3c e42d c4bc cec5 e5bd
00000120: b59a b7be d6e6 8f3d b0e3 77be c05c ca3e
00000130: 7c3d 0b3f 3c98 e8bd fc07 bd3e cfda 2b3f
00000140: a93a f0bd 01d4 023e 395b e43d 8302 873e
00000150: 015a ca3d 022b 35bd 5f42 2dbe 45db 653e
00000160: 496e 3abd 4046 8f3d 187a 6ebc bc02 57bf
00000170: 9d27 4cbf 6e5c 103e 343b 273d 32fb a7be
00000180: e8e8 11bc d0f8 b2be f2a8 39bd 2890 67bc
00000190: 6adf 9abd c746 bd3d 3242 afbe 1eca ff3d
000001a0: 7cad b7be a033 55bf 3232 61bf 0293 2c3e
000001b0: 52b3 05bf 2e1e 10be c2d1 d33c b6e7 76bf
000001c0: 0a32 0d3e d3a8 adbd 1f6e 82be 0107 bcbe
000001d0: c03d 2cbe aa49 503d e994 38bc e6f1 1abd
000001e0: a191 243e 90db 723e 4965 37be 849b 843d
000001f0: 08d9 d53e ea47 cb3d 0bf0 7dbd 271d eabd
00000200: 9cd0 57be c41e bf3c 3d71 d73e ca46 7d3e
00000210: d60e a43d 309a fcbd 5cda a8be 6909 5e3c
00000220: 32f4 f73c 5bfd d33e 2038 863e 2c70 fa3e
00000230: 3ba5 55be 3118 173d 8ab9 6fbd 7ce9 2b3d
00000240: da8b 32be adb4 ae3d 8b0e ae3e 42ed a03f
00000250: 0622 3c3e e4e4 9f3d cdcc c5be 8ea8 773e
00000260: 7b75 1e3e a478 a8be a1c0 c0be 451b bdbd
00000270: 52cc 5abe f811 d8be 2a76 56be 4b6b d1be
00000280: 6536 bcbe 23da da3c 8f1b 7e3d 76a8 9fbc
00000290: 96fa 0cbd 1c6e 5abd 5873 293d 31b1 d93d
000002a0: 2001 5e3b b626 5e3c a131 a6bd 49cf 66be
000002b0: ba79 8dbe da09 4fbe 0f5f f0be 1b81 bcbe
000002c0: 00ce bcbe c401 bebd bd72 b43c e1da c83c
000002d0: fd25 69bd 84bc 753e b68f 22be 77a2 843e
000002e0: 2104 d2be 46a7 13c0 b086 e3bd 031c fa3c
000002f0: 20f6 b8be 9daf 0fbe 6afa babc f1fa 1cbe
00000300: 7a9d 813d 9ff8 bc3e f220 9fbb 9dbb b93d
00000310: ec8c d6bd 5ca8 86bd dca4 dbbb 3edc 30be
00000320: d4cb 52bd cc43 e3bd 4af5 b5be 8080 fcbd
00000330: f7fe c6bd 3c42 98be 7cd6 8bbe 2b33 f8bd
00000340: bbe9 15be a6ca 16be 1293 3fbd 8af4 5dbd
00000350: 3617 f0bc 10ff 62ba 3424 26bc 987d 09be
00000360: 62cd 8d3e 9c53 083e d602 713e cdba bd3e
00000370: 4069 df3a 6895 7e3e 1108 b03d 1fec 7d3e
00000380: 3c70 3d3e e855 1ebd de0a 89bd 4051 b3bb
00000390: 919c 8fbe 4a9d 333c 04fb 26be bed2 af3d
000003a0: 14ea 82bd 00f2 b0bd d95c c33d ee80 443d
000003b0: 341a 923d 8078 a3bd 0c3e 203e 4eeb 5bbd
000003c0: 8176 123e e0b3 9e3a 351f 4dbe 31eb 903e
000003d0: 078e f13e aae2 a03c 82f4 393e eada 9fbb
000003e0: 08d2 813e b86c a13e 2ed5 a93e e48f 14bc
000003f0: 8ef6 cd3d e8a2 d03e cc5d d83d 3818 063f
-0.34265116 0.58125824 0.35647607 -0.76241636 0.17134497 -0.2435126 0.16047975 -0.40816802
0.2703386 -0.5073538 -0.09169191 -0.03755317 0.007404998 0.5624777 -0.04244653 -0.1789059
-0.2067259 0.17777184 0.13039178 -0.0626837 -0.16427636 0.28671592 0.19295582 0.09008025
0.13226564 -0.14394869 -0.16820249 0.4283737 0.05389227 0.014661873 -0.18484573 0.008863293
0.26764536 0.11560558 -0.19611302 0.14404377 0.17688012 -0.1451726 0.12472298 0.031178333
0.26559556 1.9867606 0.1110911 0.1943362 0.116751224 -0.07701169 -0.034808252 0.12174791
-0.029706776 -0.36837846 0.47576362 0.10765004 0.2565651 -0.016914293 -0.18419096 -0.13501602
0.19847621 0.42366046 0.93141013 0.43389964 -0.034536615 -0.7075422 0.7145537 -0.22213905
-0.009588562 -0.03409209 -0.053590413 -0.17482644 0.1518186 0.010578239 -0.023947664 -0.11219369
-0.3586022 0.0702645 -0.2420795 0.39523888 0.5439069 -0.113571614 0.36920154 0.6713075
-0.117299385 0.12776186 0.11150212 0.26369104 0.09880448 -0.04423047 -0.1691985 0.22446926
-0.045515332 0.06995821 -0.014555477 -0.8398855 -0.79747945 0.14097759 0.040827945 -0.32808834
-0.008905627 -0.34955454 -0.045327134 -0.014133491 -0.07562144 0.09242015 -0.3423019 0.12489723
-0.35874546 -0.832819 -0.87967217 0.16852954 -0.52226746 -0.14074013 0.025856856 -0.9644731
0.1378862 -0.08479466 -0.2547464 -0.36724094 -0.16820431 0.0508515 -0.011265972 -0.03782835
0.16071178 0.23716569 -0.17909731 0.06474975 0.41767144 0.09925826 -0.0619965 -0.114313416
-0.21075672 0.0233301 0.4207858 0.24734035 0.08010642 -0.123340964 -0.32979095 0.013552048
0.030267809 0.41404232 0.26214695 0.48913705 -0.20863812 0.036888305 -0.058526553 0.041970715
-0.17436162 0.08530555 0.3399547 1.2572405 0.18372354 0.07807329 -0.38632813 0.24185392
0.15474503 -0.32904541 -0.37646964 -0.09233717 -0.21367005 -0.4220121 -0.20943514 -0.4090217
-0.3676025 0.026715344 0.062038 -0.019489508 -0.034418665 -0.053327665 0.041369766 0.106295
0.0033875182 0.013559034 -0.08114935 -0.2254001 -0.27631932 -0.20218602 -0.46947524 -0.3681725
-0.36875916 -0.092776805 0.022027368 0.024518432 -0.056920994 0.23997694 -0.15875134 0.259052
-0.41018775 -2.3070846 -0.11109674 0.030530935 -0.36125278 -0.14031835 -0.022824485 -0.15330102
0.063288644 0.36908433 -0.0048562223 0.090689875 -0.104760975 -0.06575081 -0.0067030024 -0.17271516
-0.051463917 -0.110969156 -0.35538703 -0.12329197 -0.097165994 -0.29738033 -0.27312076 -0.121191345
-0.14639942 -0.14725742 -0.046771117 -0.05418829 -0.029307943 -0.0008659223 -0.010140467 -0.13426816
0.27695757 0.13313144 0.23536238 0.3705658 0.0017044917 0.24861681 0.085952885 0.24797104
0.18499845 -0.038656145 -0.06691526 -0.0054723322 -0.28049138 0.010962794 -0.16306692 0.08585118
-0.06392303 -0.08639908 0.09539194 0.04797452 0.07133904 -0.07981968 0.15648669 -0.0536912
0.14303018 0.001210805 -0.20031436 0.28304437 0.4717867 0.019639332 0.18159679 -0.0048783915
0.25355554 0.31528258 0.33170456 -0.009067509 0.10056792 0.40749288 0.10564765 0.52380705

gffs_blocks.1.conv.bias f4 [8]
00000000: a20e cfbe ce15 393e 3827 663e b627 2e3f
00000010: a05b eb3d 4e32 2dbf 608b eabb 73be d8bc
-0.4044085 0.18074724 0.22475898 0.68029344 0.114920855 -0.67654884 -0.007157728 -0.026458

gffs_blocks.1.conv_skip.weight f4 [8, 16, 1, 1]
00000000: e95c 5d3f c93d 1640 8842 353d 32d5 1a3f
00000010: ee66 0bbe 1e49 793e e8c9 dfbe 88ec 8f3e
00000020: c241 d03d 5846 9cbf 641d aabe 28ae f3bc
00000030: a462 41bf ccdc d33e 85b8 f0bf 8fc2 16bf
00000040: b7ee 0b3f c3c2 0dbf cab3 463e cd12 cabf
00000050: 14ba eebc 7f5b b2be 0b85 9abf adb8 aa3e
00000060: 3be3 2840 b1a6 c6be bfaa 5b3f 852b c03e
00000070: da42 ce3e 8599 9f3f a0f2 74be a5ab 19bf
00000080: a35a a7be f571 dabe 60cb f13d 710f 833e
00000090: 4b37 2c3e efde b5be c0ae cabd a18e b93e
000000a0: 816f 233f f4d4 d03f 2840 bcbe f46d da3e
000000b0: 4f9f 9a3e 9a57 1e3e 6f55 1cbf 87ee 673e
000000c0: f3bb e13e a76c a73f f428 88bc a491 59bf
000000d0: f46b 073f 80cb 48bf 156f fdbe 88a3 3b3e
000000e0: 0b7b 953e ab44 dbba d76c b93e e881 103f
000000f0: 9a66 78be bd6e 863f 7701 b7be 6f8a 89bf
00000100: 4f78 f13e dbf7 ebbd 494b c4bf cf32 113f
00000110: 1fcb 4cbe 4005 6d3f 9d88 f53e 7a7e d63e
00000120: 2d53 ed3e 5d29 2fbf 020d 95bf 5670 343e
00000130: 06ea debd 55c7 98bf afac 76bf 3555 91be
00000140: 8163 be3e 11cd 14bf d8c4 09bf c8cc 383f
00000150: f9b2 54bf e42c 0a3f 826e 20bf 0f42 2440
00000160: 95a3 7eba 249d 88bf edda 2abf 7da0 e4be
00000170: 428f 89be ea55 3cbf dde5 73bf ed91 223f
00000180: 42a2 163e 5329 dc3e ae3e e03e 1188 cd3e
00000190: f582 af3f 7c20 a5be f26d 17bf 5a4e f9be
000001a0: 0428 06bf 242a 5dbf 1199 4c3f ef75 b4be
000001b0: 22ed 79bc 16f2 a1be 7d76 99bf 7245 bd3c
000001c0: 7bb8 b63e 1ea7 cf3e 6306 86bd 8c29 18bf
000001d0: 4293 2dbe 98aa 29bf 8be3 0040 e7e3 d33b
000001e0: 3134 593e 3601 32bf 1bee 17bf 3f02 19bf
000001f0: a905 18bf d703 d23e cb3e ab3e f787 0ebf
0.86469895 2.347521 0.044252902 0.6048156 -0.13613483 0.24344298 -0.4370873 0.28110147
0.10168792 -1.2208967 -0.33225548 -0.02974613 -0.7554114 0.41379392 -1.8806311 -0.5889062
0.54661125 -0.5537531 0.19404522 -1.5786988 -0.029141463 -0.3483543 -1.2071851 0.3334402
2.638869 -0.3879905 0.8580741 0.37533203 0.4028538 1.2468725 -0.23920679 -0.60027534
-0.32686338 -0.42665067 0.11806369 0.25597718 0.16817968 -0.35521647 -0.09896612 0.3624163
0.63842016 1.6314988 -0.36767697 0.42662013 0.30199668 0.15463105 -0.6106786 0.22649585
0.44088706 1.3080033 -0.01662109 -0.84987855 0.528991 -0.78435516 -0.4949881 0.18324101
0.29195437 -0.0016728839 0.3621585 0.5644822 -0.2425789 1.0502545 -0.35743305 -1.0745372
0.471621 -0.11521884 -1.5335475 0.5671815 -0.1999936 0.92586136 0.4795579 0.4189337
0.4635252 -0.6842249 -1.1644595 0.17620978 -0.1088448 -1.1935831 -0.96357244 -0.2838532
0.3718529 -0.58125407 -0.53815985 0.7218747 -0.8308559 0.5397475 -0.6266862 2.566532
-0.00097137067 -1.0672956 -0.66740304 -0.44653693 -0.2686711 -0.73568594 -0.9527262 0.63503915
0.14710334 0.43000278 0.4379782 0.40142873 1.371184 -0.32251346 -0.5915214 -0.4869259
-0.5240481 -0.86392426 0.7992106 -0.35246226 -0.015254291 -0.3163001 -1.1989285 0.023104403
0.35687622 0.40557188 -0.06544187 -0.59438396 -0.16950706 -0.6627593 2.0138881 0.006466377
0.21211316 -0.695331 -0.59347695 -0.5976905 -0.59383637 0.41018555 0.33446345 -0.55676216

gffs_blocks.1.conv_skip.bias f4 [8]
00000000: 6163 9abe ee2f e7be 726c 033d 591f 983e
00000010: 1b6a 20be e307 33bf 6d82 66bd 3558 c8bd
-0.30153945 -0.45153755 0.032085843 0.29711416 -0.15665476 -0.6993391 -0.056276727 -0.09782449

gffs_blocks.1.depth_wise.weight f4 [8, 1, 3, 3]
00000000: 9ba2 1e3d 1bb0 89bd 97d6 03be be97 5d3d
00000010: d478 12bf d767 823e 4b2d 963d 1b66 d7be
00000020: a4c6 2e3e 05df 7fbd 4231 273e b542 763d
00000030: bc8a d1bd ece8 7a3e 8ecd 98bd 3dc3 98bd
00000040: 3e23 efbe 8884 63bc bca3 2b3e 998c 723c
00000050: b32f 38bd cd12 87be 5d19 05bf 4450 893c
00000060: 9696 0a3c 2ef4 853e 5c4a b83d f4a1 cbbc
00000070: 43e4 033d 51fb 483c 0be0 893e f456 173d
00000080: 6d15 9ebe aaca babd 53d1 aebe ec1f 7a3e
00000090: 8704 8b3e bec2 a63e 270f 133c 56b9 26bf
000000a0: cee0 2a3d d2ab 85be d6aa 0d3e 1b0a 763d
000000b0: a0b9 5dbd cbb3 34be 89d1 4ebd eae0 32be
000000c0: 3210 66be b716 863f 8a28 91be d1e7 93bd
000000d0: ef5a febd c3dd 233c d731 a9be 8a20 f7be
000000e0: 9e8f 1a3d 5cc5 94be c6f5 34bf 18c1 f1bd
000000f0: 74ab 0c3e b189 e3be 16b3 77bc 8dbd 9cbd
00000100: 4a19 d5bd 3174 eb3c 555b 99be 42e4 3ebf
00000110: e0ac 0b3e 1eab cabd b02d 26bd 2b60 8d3e
0.03872929 -0.067230426 -0.12874828 0.05409979 -0.5721562 0.2546985 0.07332858 -0.42070088
0.17067963 -0.062468547 0.16327384 0.06012221 -0.102315396 0.24502915 -0.074610814 -0.07459114
-0.46706575 -0.013886578 0.16761678 0.014804029 -0.044967365 -0.2638153 -0.51991826 0.016761906
0.008458754 0.26162857 0.08998558 -0.024857499 0.03220011 0.01226695 0.26928744 0.03694816
-0.30875722 -0.09120686 -0.34144077 0.2442624 0.27151892 0.32570451 0.008975781 -0.6512655
0.041718297 -0.2610765 0.138347 0.06006823 -0.054132104 -0.1764671 -0.050492797 -0.1746861
-0.22467116 1.0475682 -0.2835124 -0.0722195 -0.12419688 0.010001603 -0.33045837 -0.48267013
0.03773462 -0.29056823 -0.7068752 -0.11804408 0.13737279 -0.44440988 -0.015118381 -0.076533414
-0.10405214 0.028741928 -0.29952493 -0.74567044 0.13640165 -0.09895919 -0.040570915 0.27612433

gffs_blocks.1.depth_wise.bias f4 [8]
00000000: 86f0 40be 3577 79be 29ef 14be 8819 193e
00000010: 5b78 8a3c 1d64 2c3f c1d1 3b3e 43e0 d2bd
-0.18841752 -0.2436188 -0.14544357 0.14951146 0.016903093 0.6734026 0.18341734 -0.10296681

gffs_blocks.1.fgsm.fusion.0.weight f4 [1, 16, 1, 1]
00000000: 603f d0be 4f50 c6bd 1f3d 183f 7a3b 8a3f
00000010: fc4b 5b3f 9cd3 19bf 047f 2e3f 4ef2 5abe
00000020: 62c3 5e3f d8cd 343f 50ad 0a3f 2e73 573f
00000030: 4b26 9a3f f30c a23e 4c6a 4b3f 233d 0dbf
-0.4067335 -0.096832864 0.59468263 1.0799401 0.8566282 -0.60088515 0.6816256 -0.21381494
0.8701688 0.7062659 0.54170704 0.84160125 1.2042936 0.31650504 0.7945907 -0.5517141

gffs_blocks.1.fgsm.mask_maker.0.weight f4 [16, 1, 3, 3]
00000000: b03a f940 dc59 ba40 02c3 2641 5ef3 8841
00000010: 2924 e440 6910 a5c0 fbdf c740 3970 d040
00000020: 5c88 cf3f 005a 6440 59b9 2b40 0a01 4fc0
00000030: c4c3 e540 c166 4e40 462f 2cc1 393c c540
00000040: 88d8 a840 5448 1cc1 c013 18c1 33da 9cbf
00000050: ebbd 3941 838c 1ac1 b2b8 8ebf 7213 3541
00000060: b271 3fc1 d973 5a3f 0c89 5c41 908f 423f
00000070: 19b9 3840 d405 4a40 325c 8a40 d3e5 5040
00000080: 8541 2440 eeb5 d63f ce9b e4bf 62ce a33f
00000090: c5d8 1540 b466 c33f 630f d33f 65e0 4040
000000a0: 5bcb 8f3f 8a60 c8be 8c98 5e40 0ce4 e2be
000000b0: 7e0a 0040 fcbf 9ec1 efd2 d6c1 9029 09c1
000000c0: b417 5bc0 1989 57c1 d340 d340 0f91 5940
000000d0: 9465 b340 0c86 6b40 55ef e340 0f14 dbc0
000000e0: 7036 093f 639f 883f e04f 4abd 98d4 a73f
000000f0: a613 0840 9595 c4bf 0f84 0240 812b 683f
00000100: ab12 98c0 0177 afc0 7bc9 18c0 c29e eebf
00000110: b705 14c0 3c0d 5040 ac21 bc40 6dd4 3641
00000120: 0634 223f 8b2b 2b40 f18c 8840 5610 26bf
00000130: 69f2 873f a267 c840 2895 26c0 13ec cdc0
00000140: 4b79 b03e 38b7 1e3f 4084 ecc0 8bec 8340
00000150: fa54 e2bf 147b 5ec1 57ab d140 b708 7d3f
00000160: f888 e8c0 4c41 2f40 6e65 bd3f 43fc 9340
00000170: 9ab8 5040 f30b cf40 58f5 6c40 50b7 1240
00000180: 1f72 0841 92c3 94c0 a2bd c6bf 0d2c b33e
00000190: b23d 6c3e 782a 4d3f 8a1c d53f a2f7 6c41
000001a0: 80e2 71be 0470 25be c0cd 4340 889c 09c0
000001b0: 08f5 87bd a8cb 9340 422e 83bf 832b b73f
000001c0: f7fd 1541 fe16 1dc1 26fc bbc0 5b73 0ec1
000001d0: 6810 8441 a39d a940 b0e4 3c41 c6d6 8540
000001e0: e6fa 5ac1 b7ec f8c0 467e f6be 2a7b b1c1
000001f0: 78ff 99c1 b2e8 36c1 ad51 03c0 f56a 5941
00000200: 62b0 4bc1 42b8 1ac1 95eb ae41 3419 26c1
00000210: 5c42 0fc1 04b3 fa3f f145 a240 fc41 5240
00000220: d0ed 323e d011 fe3f 9e91 c1c1 3a20 a9c1
00000230: 706e 20c1 0557 97c1 627a bcc0 5b42 a840
7.788414 5.823469 10.422609 17.118832 7.129414 -5.158253 6.2460914 6.513699
1.6213489 3.5679932 2.6831877 -3.2344384 7.180147 3.2250216 -10.761541 6.1636014
5.276432 -9.767658 -9.504822 -1.2254089 11.608867 -9.659305 -1.1150115 11.317247
-11.965258 0.8533302 13.783459 0.7600031 2.8862975 3.1566057 4.3237543 3.2640274
2.566499 1.677427 -1.7860048 1.2797358 2.3413556 1.5265718 1.6489071 3.013696
1.1233934 -0.39136153 3.4780607 -0.4431461 2.0006404 -19.843742 -26.852995 -8.572647
-3.4233217 -13.470971 6.601663 3.3994787 5.6061497 3.6800566 7.1229653 -6.8461986
0.5359869 1.0673641 -0.04939258 1.3111753 2.1261992 -1.5358149 2.0393102 0.9069138
-4.752279 -5.483277 -2.3872974 -1.8642199 -2.3128488 3.2508078 5.8791103 11.426862
0.6336063 2.6745327 4.2672048 -0.64868677 1.0620853 6.2626505 -2.6028538 -6.4350677
0.3446754 0.6199832 -7.391144 4.122625 -1.7682183 -13.905048 6.5521655 0.9884142
-7.26672 2.7383604 1.4796579 4.6245437 3.2612672 6.4702086 3.7024746 2.2924385
8.527862 -4.6488733 -1.5526621 0.34994546 0.2307041 0.8014293 1.6649334 14.810457
-0.23621559 -0.16156012 3.059433 -2.150179 -0.06638533 4.6186104 -1.0248492 1.4310154
9.374503 -9.818113 -5.87453 -8.903163 16.50801 5.300493 11.805832 4.1824675
-13.6862545 -7.778896 -0.48143214 -22.185139 -19.24974 -11.43181 -2.05186 13.588613
-12.730562 -9.669985 21.86503 -10.381153 -8.953701 1.9585881 5.071038 3.2852774
0.17473531 1.9849186 -24.196102 -21.140736 -10.026962 -18.91749 -5.8899393 5.2581

gffs_blocks.1.fgsm.mask_maker.0.bias f4 [16]
00000000: a932 1c41 d8d8 f7c0 4a49 09c0 831e 8c41
00000010: cb9b 8c41 6592 23c0 e0a2 df41 f1c3 dfc0
00000020: 1318 61c1 4ebe 9141 801d bcc0 4ea9 68c1
00000030: a34a b441 11b7 cf40 4d24 0541 ba7d db40
9.762368 -7.74522 -2.1450982 17.514898 17.57607 -2.5558102 27.954529 -6.9926686
-14.0683775 18.217922 -5.878601 -14.541334 22.536444 6.491097 8.3213625 6.8590975

gffs_blocks.1.fgsm.mask_maker.1.weight f4 [16]
00000000: 1f49 cb3f 69b7 973f 289b 0b40 a30c aabe
00000010: 2591 c4be 6c65 5340 c22d 9c3e 1e05 a63f
00000020: e5b6 373f e84e c33e e856 923f 5f8f 8b3f
00000030: fd5a 963e 5361 1a3f 477f 133f be3e e13e
1.588169 1.1852847 2.181345 -0.33212766 -0.38391986 3.3030653 0.3050366 1.2970312
0.7176345 0.38146138 1.1432772 1.0903128 0.29366294 0.60304755 0.57616085 0.4399318

gffs_blocks.1.ca.ca.1.weight f4 [1, 16, 1, 1]
00000000: 1524 373e 775d ed3c 411d 2abd 29dd 163f
00000010: 5682 a7bf 30f7 40bd 9413 19bf 31ed 1bbf
00000020: 718c 65be f767 9cbd 4587 c43d 917b d0be
00000030: f329 3e3f f209 e9bd 1429 973e 3c8e 143e
0.17884858 0.028975232 -0.041531805 0.58931214 -1.308665 -0.047110736 -0.597955 -0.609088
-0.22416855 -0.07637017 0.09596113 -0.40719274 0.7428276 -0.1137885 0.29523528 0.14507383

gffs_blocks.1.ca.ca.3.weight f4 [16, 1, 1, 1]
00000000: 6371 f13e f578 ae3f 13f5 823e eabe b7bc
00000010: 6c05 07c0 d7c5 a43f 8c01 2e3e 9443 0a3f
00000020: 44be 12bf 76a8 833d 7005 783e 0b96 7cbf
00000030: 4945 8cbe b420 a93d 0ccb 9e3e 32fd 9f3f
0.4715682 1.3630663 0.25577602 -0.022429902 -2.109706 1.2872876 0.16992778 0.54009366
-0.5732157 0.06428616 0.24220824 -0.9866645 -0.2739661 0.08258191 0.31014287 1.2499144

gffs_blocks.1.ca.ca.3.bias f4 [16]
00000000: 2d90 8abe 5927 73bf eba1 d33d c784 1b3f
00000010: ca7d 2fbf 8ca7 13bf 2f2b debe e9ba 1dbe
00000020: db21 df3e 0943 9ebf f327 703e c3e9 803d
00000030: 3a74 f8bc 531b 69bf a995 50bf 5ce3 57be
-0.27063122 -0.94981915 0.10333618 0.6074948 -0.68551314 -0.5767753 -0.4339232 -0.15403332
0.43580517 -1.2364208 0.2345274 0.062945865 -0.030328859 -0.9105732 -0.81478363 -0.21082824

gffs_blocks.1.prelu.weight f4 [16]
00000000: 5c9b 163f 9360 833d 4515 73bd 2f99 273f
00000010: 203d 8d3f 38df c53d a346 0cbe 8660 c13e
00000020: 0490 25bc 5a1c 8a3f 97b8 513d 127d efbd
00000030: cf2d 9d3e 6638 3f3f bc9f 1c3e 3ae6 523f
0.5883081 0.064149044 -0.059346456 0.65468115 1.1034279 0.09661716 -0.13698821 0.37768954
-0.010105137 1.0789902 0.05120143 -0.11693777 0.30699012 0.7469543 0.15295309 0.8238255
