weights/SRGFS/X4/SRGFS-S_inference.pth (torch, 115228 bytes, 117 tensors)

feature_extra.0.weight f4 [16, 1, 3, 3]
0	0x3ee3d889	0.4450114
1	0xbcd056b0	-0.02543196
2	0xbe85790d	-0.26068917
3	0xbe5cbe74	-0.21557027
4	0x3ec23c7c	0.3793677
5	0xbee7c287	-0.452656
6	0x3f20ef05	0.62864715
7	0xbf2d4c9d	-0.6769503
8	0xbe74fc90	-0.2392447
9	0xbca2e4b8	-0.019884452
10	0xbd32d870	-0.043663442
11	0x3ee28ed8	0.44249606
12	0xbc613ab0	-0.013746902
13	0x3f400482	0.7500688
14	0xc04e7d48	-3.2263966
15	0xbdf7796e	-0.12083708
16	0x3db9dbd0	0.09075129
17	0xbee25976	-0.44208878
18	0x3d7095c6	0.058736585
19	0xbe5dae0e	-0.21648428
20	0xbe5f3a28	-0.21799529
21	0xbd4cd7a2	-0.05001033
22	0x3fadbc18	1.3573027
23	0xbf19cf58	-0.60082006
24	0xbc8a961c	-0.01691728
25	0x3ddd8f8c	0.10818395
26	0xbdfc49a8	-0.12318736
27	0xbd2f4616	-0.04279145
28	0x3df2cbac	0.118552536
29	0xbd9c600c	-0.07635507
30	0x3fa2d01f	1.2719764
31	0xc05a1b9e	-3.4079356
32	0x3f03d39c	0.51494765
33	0x3e6a8af0	0.22904563
34	0x3f994c5f	1.1976432
35	0x3d210496	0.039311014
36	0xbb817cac	-0.0039516296
37	0x3e8782a2	0.26466852
38	0xbd45c6f2	-0.048285432
39	0x3e80210c	0.25025213
40	0xbfa543d3	-1.2911323
41	0x3f1b713e	0.6071967
42	0x3cefdd38	0.02928029
43	0x3ecce946	0.40021724
44	0x3dda096e	0.1064633
45	0x3d8b415c	0.06799576
46	0xbd774aa8	-0.060373932
47	0x3dad45e6	0.08460598
48	0x3d5fcb78	0.054637402
49	0x3f9567b6	1.1672275
50	0xbcdf3034	-0.027244665
51	0xbe3b4c12	-0.18290737
52	0xbfa61bb5	-1.2977206
53	0xbd395a65	-0.045252223
54	0x3e93d206	0.28871173
55	0xbf91b142	-1.138222
56	0x3f4a0e12	0.7892772
57	0xbf1699dc	-0.5882852
58	0x3fd606ea	1.672086
59	0xbf5f1ca2	-0.87153065
60	0xbe810e57	-0.25206253
61	0xbf0203ae	-0.50786865
62	0x3de92ae0	0.11385131
63	0xbd8af4ed	-0.06784997
64	0x3c931a18	0.017956778
65	0xbd477c4a	-0.048702516
66	0xbf0b47ab	-0.5440623
67	0x3f68e4be	0.9097403
68	0xbe90ceb4	-0.28282702
69	0xbdb6bae7	-0.089223675
70	0x3bb5e1d0	0.0055506006
71	0xbdcd6d22	-0.10030581
72	0xbe816b34	-0.25277102
73	0x3e4dcd9e	0.20097968
74	0xbf3385d8	-0.70126104
75	0x3ec4c57f	0.38431928
76	0xbe8463b6	-0.25857323
77	0xbeb01b1e	-0.3439569
78	0xbe90c948	-0.28278565
79	0xbe0555d4	-0.13021022
80	0xbdec2f92	-0.11532511
81	0x3dc2bb28	0.095083535
82	0xbd61ac74	-0.055096105
83	0xbe8adb26	-0.27120322
84	0x401856e2	2.380303
85	0xc00983dd	-2.1486733
86	0x3da976c0	0.08274603
87	0x3d516346	0.051120065
88	0x3d08d879	0.03340957
89	0xbd837262	-0.06418301
90	0x3b2c27a8	0.0026268754
91	0xbc0bc0c0	-0.008529842
92	0x3ca40268	0.020020679
93	0xbe7dc6b0	-0.24782825
94	0xc00d5f55	-2.2089436
95	0xbe129424	-0.14314324
96	0x3e09f60a	0.13472763
97	0x40169014	2.3525438
98	0x3d50c358	0.050967544
99	0xbd194337	-0.037417617
100	0x3c156d00	0.009120226
101	0x3d0428ac	0.03226535
102	0x3cff1da0	0.031142056
103	0xc0245f54	-2.5683184
104	0x40229acc	2.540698
105	0xbc9ecf2c	-0.019385897
106	0xbd578f60	-0.052626967
107	0x3d7c76ae	0.06163662
108	0x3d9bba94	0.07603946
109	0x3e909c7b	0.28244385
110	0xbd611770	-0.054953992
111	0x3fa07838	1.2536688
112	0xc07f0e30	-3.985241
113	0x3ea7bbc7	0.3276045
114	0x3e80e332	0.25173336
115	0x3f594515	0.84871036
116	0x3d71146f	0.058857378
117	0xbd32cf64	-0.043654814
118	0x3e18c831	0.14920117
119	0xbd365fd0	-0.044524968
120	0x3f1174e2	0.56818974
121	0xbfd1da0f	-1.6394671
122	0x3de92913	0.113847874
123	0x3e285b00	0.16440964
124	0x3f411544	0.75423074
125	0xbcb5609e	-0.022140797
126	0x3e6d1cea	0.23155561
127	0x40156964	2.3345575
128	0x3e1c2200	0.15247345
129	0xbe23eafc	-0.16007608
130	0xc018facc	-2.3903074
131	0xbda9fdfc	-0.08300397
132	0xbc03c660	-0.008042902
133	0x3d4593a8	0.04823652
134	0xbd69aaf1	-0.057047788
135	0x3e25ec9d	0.16203542
136	0x3c27ea40	0.010248721
137	0x3cdfe8b8	0.027332649
138	0xbc2fe980	-0.010736823
139	0x4041dbac	3.0290327
140	0xc0345547	-2.817705
141	0x3e745f7d	0.23864551
142	0xbec9eb48	-0.39437318
143	0xbe2071be	-0.15668389

feature_extra.0.bias f4 [16]
0	0xbf110ee0	-0.5666332
1	0x3ba42600	0.0050094128
2	0xbe8817ae	-0.26580566
3	0x3e550350	0.20802045
4	0xbe9709ea	-0.2949975
5	0x3c7fdf93	0.015617269
6	0xbec9bab6	-0.39400262
7	0xbcfba4e3	-0.030718273
8	0xbcdf6ef8	-0.027274594
9	0x3deadaa5	0.114674844
10	0xbe447caf	-0.19188188
11	0x3a8e5570	0.0010859203
12	0x3d90fdca	0.070796564
13	0x3d7a4445	0.061100263
14	0x3e4b304c	0.19842643
15	0xbd9fb28a	-0.077977255

feature_extra.1.weight f4 [16]
0	0x3e691f83	0.22765927
1	0x3dab367c	0.083600014
2	0x3f0d00a4	0.550791
3	0x3f7a64bd	0.97809964
4	0x3df7d3fb	0.12100979
5	0x3faf61a7	1.3701676
6	0x3e769860	0.24081564
7	0x3bd004a0	0.0063482076
8	0xbe39d0a3	-0.18145995
9	0x3f5df34c	0.86699367
10	0x3d643344	0.055712953
11	0xbf215db3	-0.630336
12	0x3cdec477	0.027193291
13	0xbf824e90	-1.0180225
14	0x3d909f80	0.07061672
15	0x3f831427	1.0240525

fnl_conv.0.weight f4 [16, 16, 3, 3]
0	0xbb694eae	-0.0035599875
1	0x3bab42a1	0.0052264486
2	0xbb56ec3a	-0.003279461
3	0xbc7a464b	-0.015275548
4	0x3dc8a8b5	0.09797803
5	0xbc044c17	-0.008074782
6	0xbb3b8230	-0.0028611533
7	0xbc03ea2c	-0.008051436
8	0xbb520854	-0.003204842
9	0xbc755148	-0.014972992
10	0xbd77420c	-0.06036572
11	0x3c292ce5	0.010325645
12	0xbce18a01	-0.027531626
13	0x3cc45508	0.023966327
14	0x3cd46919	0.02592902
15	0xba45bd55	-0.0007543166
16	0x3c831dbe	0.016005393
17	0x3b8450a2	0.0040379325
18	0xba1c4de0	-0.0005962532
19	0xbb3fcdfe	-0.0029267068
20	0x39815788	0.00024670013
21	0x3bb4453e	0.0055014184
22	0x3ce46101	0.027878286
23	0x3a0404c4	0.00050361105
24	0xba12b531	-0.00055964576
25	0x3b12318d	0.0022307367
26	0x38e8a850	0.00011093973
27	0xbd08174d	-0.033225346
28	0xbccfb19b	-0.025353244
29	0xbb464e98	-0.0030259248
30	0x3bb38ffe	0.0054798117
31	0x3c0c9acb	0.008581827
32	0x3c203fac	0.009780806
33	0xbb08cca2	-0.0020873924
34	0x3aa3527c	0.0012460495
35	0x3b1321c0	0.0022450536
36	0x3bafdff0	0.0053672716
37	0x3bd3b7cc	0.0064611193
38	0xba9f70ec	-0.0012164391
39	0x3b7dbb87	0.0038716511
40	0xbc38316b	-0.011242251
41	0xb9c3abc4	-0.00037321274
42	0x3aa306ef	0.001243798
43	0xba2be0ec	-0.00065566483
44	0x3983088d	0.00024992638
45	0x3c7b2960	0.015329689
46	0x3c8a47f5	0.016880015
47	0x3ac68d90	0.001514839
48	0x3c073292	0.008251803
49	0xbb3c6f6a	-0.0028752931
50	0xb98125f8	-0.00024633086
51	0xbb348866	-0.002754712
52	0xbb2e3a04	-0.0026584873
53	0x3b49eaa1	0.0030810016
54	0xbc27ebff	-0.010249137
55	0x3d0fc37e	0.035098545
56	0xb92e0d60	-0.00016598916
57	0x3c472a8d	0.012156141
58	0xbc9c92d0	-0.019112974
59	0x3b6b5366	0.0035907864
60	0x3c318b60	0.010836452
61	0x3bc1b418	0.0059113614
62	0x3a925a10	0.0011165757
63	0xbb69c23b	-0.003566875
64	0x3c0ffba2	0.008788021
65	0x39e24df2	0.00043164153
66	0xbd02b395	-0.031909544
67	0x3c86daf2	0.016461823
68	0x3a8c35d3	0.0010697193
69	0x3ac39937	0.0014922981
70	0x3b97b6c7	0.004629943
71	0xba25b137	-0.00063206576
72	0xbc04298d	-0.008066547
73	0xbb73fe24	-0.0037230337
74	0x3bf757a9	0.0075482917
75	0xbd8991fc	-0.067172974
76	0xbc6b0ce3	-0.014346334
77	0x3cd7a0be	0.026321765
78	0x3b6c4cac	0.0036056442
79	0x38cdf340	9.8204706e-05
80	0x3c298e59	0.01034888
81	0x3c10813d	0.008819875
82	0xbc176ed8	-0.009242736
83	0x3bf4fd85	0.007476511
84	0xbc4efb2e	-0.012633128
85	0x3ca3df08	0.02000381
86	0x3d23bc56	0.039974533
87	0x3b43ddb4	0.0029886784
88	0x3c1f0242	0.009705128
89	0xba24bbbb	-0.00062840775
90	0x3bdce178	0.006740745
91	0xbd1c48db	-0.038155418
92	0xbba9a3f3	-0.005177015
93	0xbb589a0e	-0.0033050808
94	0xbd05ae25	-0.03263678
95	0xbb2692b8	-0.002541704
96	0x3a6abd66	0.0008954614
97	0x3ba331f8	0.004980322
98	0xb97d4eb1	-0.00024157275
99	0x3ad5a786	0.0016300536
100	0x3a60a636	0.0008569689
101	0x396e1b87	0.00022707703
102	0xba838fd0	-0.0010037366
103	0xbb028860	-0.0019917712
104	0xb9c5ca5c	-0.00037725538
105	0xba38fb3c	-0.000705648
106	0xb9650e78	-0.00021844532
107	0xb8d52362	-0.00010163222
108	0x3ad1710d	0.0015979126
109	0xbbb5d346	-0.0055488674
110	0xbab8c833	-0.001409775
111	0x3b7ae172	0.0038281349
112	0xbc606b20	-0.013697416
113	0x3b5d6bf4	0.003378627
114	0xbae6422e	-0.001756733
115	0xbab8b7de	-0.0014092883
116	0x3ab3d73d	0.0013720762
117	0x3a949841	0.0011336879
118	0xba5159c6	-0.00079860946
119	0x3a5abd14	0.0008344215
120	0xbc1590c4	-0.009128753
121	0x3be332cd	0.006933546
122	0xbacbe71e	-0.0015556549
123	0x3b14a31a	0.0022680224
124	0x3bc3668b	0.005963152
125	0x3a3d5fa2	0.0007224028
126	0xbb69875e	-0.0035633664
127	0xbc105730	-0.00880985
128	0x3ac040cf	0.0014667752
129	0xbb782608	-0.0037864465
130	0x3d5a6964	0.053323165
131	0x3b94c67c	0.0045402627
132	0x3bcbffa4	0.006225543
133	0x3cfb688d	0.030689502
134	0x3afb3226	0.0019164726
135	0x3c4f43a1	0.012650401
136	0x3c28e930	0.0103095025
137	0xbbb773ff	-0.0055985446
138	0x3d914fdb	0.07095309
139	0xbc8f3cc0	-0.017485023
140	0xbba12428	-0.0049176402
141	0xbbb57e20	-0.005538717
142	0xbbeb9f84	-0.0071906466
143	0x3a0aebea	0.0005299436
144	0xba5172ef	-0.0007989844
145	0x3c39a48a	0.011330733
146	0x3b46b3d4	0.0030319588
147	0x3c254b16	0.010088703
148	0x3d46549a	0.048420526
149	0xbc737e0e	-0.014861597
150	0xba89972d	-0.0010497324
151	0xbc186cd6	-0.009303292
152	0xbaf36509	-0.001856954
153	0xbb3d14fe	-0.0028851624
154	0xbd973acb	-0.07384261
155	0x3b86681c	0.0041017663
156	0xbbe69dc1	-0.0070378487
157	0xbcfbbf0e	-0.03073075
158	0x3cb84dff	0.022498129
159	0x3a3a6392	0.0007110174
160	0x3c556931	0.013025568
161	0x3aca683d	0.0015442442
162	0xba1f8847	-0.00060856756
163	0xbb34d110	-0.0027590431
164	0x397868f0	0.00023690215
165	0x3a5fed8c	0.0008542172
166	0x3d016381	0.031589035
167	0xb9300d28	-0.00016789569
168	0x38e33474	0.00010833974
169	0x3a92fa3f	0.0011213495
170	0x3963d87c	0.00021729054
171	0xbc8a6d70	-0.016897887
172	0xbd543f8f	-0.051818427
173	0xbbf3e831	-0.007443451
174	0x3c6ebe6d	0.014571768
175	0x3cc257bf	0.023723481
176	0x3c44bf53	0.012008506
177	0x398bf8c0	0.0002669748
178	0xbbf4a060	-0.0074654073
179	0xba2afcd6	-0.0006522661
180	0x3b1ecc40	0.002423063
181	0x3c1655a1	0.009175689
182	0xbadb7476	-0.0016743082
183	0xbaa0e846	-0.0012276254
184	0xbbb44d47	-0.0055023762
185	0x3a6b49f4	0.00089755584
186	0xb9c4564e	-0.00037448335
187	0x3af05ac8	0.0018337602
188	0x39ab7513	0.0003270289
189	0xbb4565f6	-0.0030120588
190	0x3ce98f2a	0.028510649
191	0xbac97dbf	-0.0015372558
192	0x3c46be08	0.012130268
193	0x3d042a1e	0.03226673
194	0xbb26c9e4	-0.0025449926
195	0xba13e525	-0.000564175
196	0xbc45fd7a	-0.012084359
197	0xb9a1c3c0	-0.00030854158
198	0xbae8cdb1	-0.0017761496
199	0x3cf1fabe	0.029538509
200	0x3a4a980c	0.0007728345
201	0x3c074b86	0.008257752
202	0xbb42c2a0	-0.0029718056
203	0x3bc7b824	0.0060949493
204	0x3b66db0e	0.0035225782
205	0x3c14a878	0.009073369
206	0x3b0329a2	0.0020013829
207	0xbbb551a4	-0.005533414
208	0xbcac8fcb	-0.02106466
209	0xb9bb2a0c	-0.00035698747
210	0xbac38d1a	-0.0014919371
211	0xbc05b4aa	-0.008160749
212	0x3ac14a68	0.0014746906
213	0xbb214dd8	-0.002461305
214	0x3b0991ac	0.0020991368
215	0xba207864	-0.0006121455
216	0xbc9c8cc2	-0.019110087
217	0xbc21dae0	-0.009878844
218	0x3a675e48	0.00088259997
219	0x3c1d5d3c	0.009604748
220	0xbce80db7	-0.028326852
221	0x3ca62f6b	0.020286283
222	0xbbd86fe0	-0.0066051334
223	0xbb446988	-0.0029970128
224	0x3b544378	0.0032388847
225	0x3b5bb437	0.0033524164
226	0xba9641f0	-0.0011463743
227	0xbbac2625	-0.0052535706
228	0xbb6594ad	-0.0035031245
229	0x3c4b7c9c	0.012419846
230	0x3cd03be2	0.02541918
231	0xbb3c43f8	-0.0028727036
232	0x3c045bee	0.008078558
233	0xbbef5064	-0.0073032845
234	0x39eb6ed8	0.00044905278
235	0xbd0c99f4	-0.03432651
236	0xbbc8ce3c	-0.0061281007
237	0xbaec280e	-0.0018017308
238	0xbccbf844	-0.024898656
239	0xbba1f215	-0.0049421885
240	0xb9536e4f	-0.00020163621
241	0x3bc2f42f	0.005949519
242	0xba694a70	-0.00088993367
243	0x3b5a3e0a	0.0033301138
244	0x3b1f2581	0.0024283829
245	0x38141a22	3.5310288e-05
246	0xbb19ed00	-0.002348721
247	0xbaf3e45d	-0.0018607486
248	0x3572f200	9.050418e-07
249	0xba0ccf6b	-0.0005371484
250	0x381282c8	3.4930912e-05
251	0xb8d5ce40	-0.000101950485
252	0x3ab87693	0.0014073424
253	0xbc3130e9	-0.010814884
254	0xb8cd7d78	-9.798532e-05
255	0xba5734ee	-0.0008209486

fnl_conv.0.bias f4 [16]
0	0xbbb22b96	-0.0054373248
1	0xbb5f6eb4	-0.0034093084
2	0xbaeabb91	-0.0017908682
3	0x3b29fdcc	0.0025938628
4	0x3b2e80f0	0.0026627146
5	0x3b001378	0.0019542854
6	0x3bbc08b6	0.005738343
7	0x3c514fe6	0.012775397
8	0x3b63fbd9	0.0034787564
9	0x3a241671	0.00062594475
10	0x3b642c08	0.0034816284
11	0x3c33d848	0.010976858
12	0x3ac6821a	0.0015144974
13	0x3a73a07a	0.0009293627
14	0x3ae320da	0.0017328516
15	0x3bdde3f4	0.006771559

gffs_blocks.0.conv.weight f4 [8, 16, 3, 3]
0	0xbe4e514d	-0.20148201
1	0xbf78c46c	-0.97174716
2	0xbde56a3a	-0.11201902
3	0xbf4a6b7e	-0.7907027
4	0xbebe9051	-0.3721948
5	0xbec0d21a	-0.37660295
6	0x3e974880	0.295475
7	0x3ed6789a	0.41888887
8	0x3f4dfcda	0.80463946
9	0x3dc99f62	0.09844853
10	0x3f2ba702	0.6705171
11	0x3d5d1e3e	0.05398392
12	0xbeb3f136	-0.35144967
13	0x3f4bd62a	0.79623663
14	0xbdfe30de	-0.124116644
15	0xbeef51f8	-0.46742225
16	0xbf1fdd60	-0.62447166
17	0x3e8e2608	0.2776339
18	0x3f38e88c	0.7222984
19	0xbefaf7c6	-0.4901716
20	0x3eb3fbc6	0.35153025
21	0xbf7b2bf7	-0.9811396
22	0x3e009882	0.12558177
23	0x3ec1ca85	0.37849823
24	0xbfe20f8a	-1.7660992
25	0xbf97dca4	-1.1864209
26	0x3f0c99fd	0.5492247
27	0x3e021526	0.1270338
28	0x3ef721d6	0.48268002
29	0xbd94ff90	-0.07275307
30	0x3f3c7556	0.7361654
31	0xbfc29329	-1.520116
32	0x3fbaa742	1.4582293
33	0xbe13e73d	-0.14443679
34	0xbf171066	-0.590094
35	0x3ef1e808	0.47247338
36	0x400bcbb2	2.1843076
37	0x3fa99b58	1.3250532
38	0xbd11a14c	-0.035554215
39	0x3cbb96c0	0.022899032
40	0x402feb13	2.7487228
41	0x3e0c35e1	0.13692428
42	0x3f33858c	0.7012565
43	0x3e0255a4	0.12727982
44	0x3f74e682	0.95664227
45	0xbdcf3dfc	-0.101192445
46	0x3fcc7dae	1.5975854
47	0xbf3f0027	-0.7460961
48	0xbe15dea8	-0.14635718
49	0xbedb4fb1	-0.42834237
50	0x3f055dc0	0.52096176
51	0xbf3e09e3	-0.74233836
52	0xbe6f9086	-0.23394975
53	0xbe52ee9b	-0.20598833
54	0xbe7c2e32	-0.24626997
55	0x3e6734e4	0.2257877
56	0x3f52cfda	0.82348406
57	0x3e9a5d43	0.30149278
58	0x3e4f2470	0.20228744
59	0xbf2ca0f3	-0.6743309
60	0xbf02ca82	-0.5109025
61	0x3f18d982	0.5970689
62	0x3f24314f	0.6413774
63	0x3f64ec96	0.894235
64	0xbf5873d4	-0.8455174
65	0xc003f8a4	-2.0620508
66	0xbf17d74c	-0.5931289
67	0xc050f8dc	-3.2651892
68	0xbf88d3dd	-1.0689656
69	0x3e728e50	0.236871
70	0xbf6081a6	-0.8769783
71	0xbeafc3c4	-0.34329045
72	0x3dc0b45e	0.09409402
73	0x3d79cd66	0.0609869
74	0xbcb7c690	-0.02243355
75	0x3f214099	0.62989193
76	0x3d668750	0.056281388
77	0xbe59eacd	-0.21280976
78	0x3ecf9718	0.40544963
79	0x3f0730d6	0.5280889
80	0x3d8b1486	0.06791024
81	0xbdc6582c	-0.09684786
82	0xbc151158	-0.009098373
83	0x3de142d7	0.10999077
84	0xbdd230b3	-0.10263195
85	0x3e1c8057	0.15283333
86	0xbe013e89	-0.12621512
87	0xbe1d8be6	-0.15385398
88	0xbe015d3c	-0.12633222
89	0x3e1610e0	0.14654875
90	0xbef81d38	-0.48459792
91	0x3e6bc688	0.23024952
92	0xbf175710	-0.5911722
93	0x3f7d329d	0.98905355
94	0xbf346022	-0.7045919
95	0x3dc9ffaf	0.09863221
96	0x3da7721c	0.081760615
97	0x3e820393	0.25393352
98	0xbe0d1dcb	-0.13780896
99	0xbf4f7140	-0.8103218
100	0xbeb1b20d	-0.34706154
101	0x3dd4c7fa	0.10389705
102	0xc002070a	-2.0316796
103	0xbf8b439b	-1.0880007
104	0xbb75e670	-0.0037521385
105	0xbed91cda	-0.42404824
106	0x3ea45182	0.32093436
107	0xbdcf7ad2	-0.10130848
108	0x3dd3f33d	0.103491284
109	0xbef3e871	-0.47638276
110	0x3edcac56	0.43100232
111	0xbf0244fc	-0.5088651
112	0xbc036d80	-0.008021712
113	0xbf1ffe08	-0.62496996
114	0xbebf700b	-0.3739017
115	0xbedf56a1	-0.4362078
116	0x3e13f2f3	0.14448147
117	0xbc7a4308	-0.015274771
118	0x3f3a7a94	0.7284329
119	0xbe2ba7c6	-0.16763219
120	0x3f8441e0	1.0332603
121	0x3e27885c	0.1636061
122	0xbe2c5212	-0.16828182
123	0x3e9e12e4	0.30873787
124	0x3f74a8c6	0.9557003
125	0x3e3eb606	0.18624124
126	0x3a628740	0.00086413696
127	0x3e9ff0b9	0.31238344
128	0xbd5c3b98	-0.05376777
129	0xbd2a5afa	-0.04159067
130	0xbf27a34a	-0.65483534
131	0x3ddfdbbf	0.10930585
132	0xbf38d447	-0.7219891
133	0x3f1bb614	0.60824704
134	0x3eb7fc0e	0.3593449
135	0xbebc1544	-0.36734974
136	0x3f87a8d7	1.0598401
137	0xbf13f7dc	-0.5780008
138	0xbf10d7f0	-0.56579494
139	0x3c9b23a0	0.018937886
140	0x3f305148	0.68874025
141	0xbea7fe86	-0.32811373
142	0x3efb1b24	0.49044144
143	0xbe8185f5	-0.25297514
144	0xbd06a55e	-0.03287255
145	0xc01b5784	-2.4272165
146	0xbf9734b8	-1.1812963
147	0xc0008b95	-2.0085194
148	0xbefe8311	-0.4970937
149	0x3faa8e45	1.3324667
150	0x3e8814c7	0.26578352
151	0x3ed67173	0.4188343
152	0x40014daf	2.0203664
153	0x3f00dad6	0.5033392
154	0xbe03c7d4	-0.12869197
155	0xbc819191	-0.015816482
156	0x3f88e971	1.0696241
157	0xbe166a6f	-0.14689039
158	0x3ec99472	0.39371067
159	0x3db4f2a7	0.08835345
160	0x3dfb5156	0.12271373
161	0x3e722a49	0.23648943
162	0xbfe8d33e	-1.8189466
163	0x3f1f4478	0.6221385
164	0x3f123793	0.5711605
165	0xc04c53b1	-3.192608
166	0x3fc0dad4	1.5066781
167	0x3f81d692	1.0143607
168	0xbfe4f731	-1.7887937
169	0x3bc6d8d0	0.0060683265
170	0xbee71f49	-0.45141056
171	0xbed2cded	-0.41172734
172	0x3f7d57ba	0.98961985
173	0x3f0d5049	0.5520063
174	0xbd8815af	-0.06644761
175	0xbf8df8a2	-1.1091502
176	0x3fa043d7	1.2520703
177	0xbd9d030b	-0.07666596
178	0x3e71c720	0.23611116
179	0xbd5643f2	-0.05231089
180	0xbffbdfb5	-1.9677645
181	0x3e152e8a	0.14568534
182	0x3f58ea49	0.8473249
183	0xbd6aaf4e	-0.05729609
184	0x3fc7db04	1.5613713
185	0x3ef663b3	0.4812294
186	0x3d6014f8	0.054707497
187	0x3f5234a4	0.82111573
188	0x3def5ab2	0.11687221
189	0x3ef2d654	0.47429144
190	0x3efe50ac	0.49670923
191	0x3f039dca	0.5141264
192	0x3c9c0dc8	0.01904954
193	0x3de28dfe	0.11062239
194	0xbe4aa786	-0.19790468
195	0x3e80223a	0.25026113
196	0x3db7419a	0.089480594
197	0xbd89fc63	-0.06737592
198	0x3f43baf5	0.7645715
199	0xbea37e18	-0.3193214
200	0xbf1a90ea	-0.6037737
201	0x3ed89b72	0.42306095
202	0xbdac2993	-0.08406367
203	0xbe2a4c1f	-0.166306
204	0x3ee2c59c	0.4429139
205	0xbf243fe5	-0.64159995
206	0xbef8b571	-0.4857593
207	0xbfc7dbe6	-1.5613983
208	0xbf68f346	-0.90996206
209	0xbecbb578	-0.39786887
210	0xbe353bc8	-0.17698586
211	0x3e13c2c9	0.14429773
212	0x3f58e35d	0.8472193
213	0xbd0222a6	-0.031771325
214	0xbf02152b	-0.5081355
215	0xc000b506	-2.0110488
216	0xbd950dac	-0.07277998
217	0x3cfebe8c	0.03109672
218	0x3dd50d08	0.10402876
219	0xbe80f5d6	-0.25187558
220	0xbd8e50dc	-0.069490165
221	0x3eb32271	0.34987214
222	0xbe5eeb10	-0.21769357
223	0x3d38f137	0.045151915
224	0x3dea4e18	0.114406765
225	0x3dd3f944	0.10350278
226	0x3d6957b6	0.056968413
227	0xbd7f3fd9	-0.06231675
228	0x3dfb7e2c	0.12279925
229	0x3c9caf9c	0.019126706
230	0x3e129122	0.14313176
231	0xbbb73de8	-0.0055920966
232	0x3ddf3200	0.108982086
233	0xbe2c63ff	-0.1683502
234	0x3f66722d	0.9001797
235	0x3e8a1bb9	0.26974276
236	0x3ef1df84	0.4724084
237	0xbe355b4b	-0.17710607
238	0xbfb82400	-1.4385986
239	0xbe01779e	-0.12643287
240	0xbde39ba6	-0.11113672
241	0xbece0b2c	-0.40242898
242	0xbdeb8e40	-0.115017414
243	0x3e476ad6	0.19474348
244	0xbe5f2c39	-0.21794213
245	0x3bb1726c	0.0054152515
246	0x3d481d5c	0.048856124
247	0xbf660e87	-0.89865917
248	0xbe5826aa	-0.21108499
249	0x3dd5f1b4	0.10446492
250	0xbec4fff4	-0.38476527
251	0xbe3ed8a0	-0.18637323
252	0x3efeee09	0.4979098
253	0x3f69dcd8	0.91352606
254	0xbeca59b6	-0.3952157
255	0x3f010c83	0.50409716

gffs_blocks.0.conv.bias f4 [8]
0	0xbc499748	-0.012304135
1	0x3e3d3add	0.18479486
2	0xbe2184ba	-0.15773287
3	0x3f599098	0.8498626
4	0x3867e000	5.5283308e-05
5	0xbf339f31	-0.7016478
6	0x3e8ab6c2	0.27092558
7	0x3effcc11	0.49960378

gffs_blocks.0.conv_skip.weight f4 [8, 16, 1, 1]
0	0xbe6b7d7f	-0.22997092
1	0xbeeb7b04	-0.4599229
2	0x3f12f004	0.57397485
3	0xbf798bd1	-0.9747897
4	0x3eb9a9c0	0.3626232
5	0x3d98b8be	0.07457112
6	0xbe4dcef4	-0.20098478
7	0x3ea0f9a2	0.31440455
8	0xbd85f2bc	-0.065404385
9	0xbe05c3f5	-0.13063033
10	0xbfef4456	-1.869273
11	0xbf92fe00	-1.1483765
12	0xbeec2c86	-0.4612772
13	0xbf752abb	-0.95768327
14	0xbf0f1e24	-0.55905366
15	0x3e23e913	0.1600688
16	0xbe636a7e	-0.22208592
17	0xbe4216c1	-0.18953992
18	0x3f44fbfd	0.76947004
19	0xbf241cfc	-0.64106727
20	0x3f62e57d	0.8863142
21	0xbe85133c	-0.25991237
22	0xbe90f813	-0.28314266
23	0xbf09cc22	-0.53827107
24	0xbc896b4c	-0.016774796
25	0xbefb76ea	-0.49114162
26	0xbeca3437	-0.39492962
27	0xbe22dec5	-0.15905292
28	0xbd43aefd	-0.047774304
29	0xbfa0b7d7	-1.2556103
30	0xbf6da89a	-0.9283539
31	0x3eeeb7dc	0.4662465
32	0x3eed9563	0.46403036
33	0xbe214e64	-0.1575256
34	0xbdbf34d9	-0.09336252
35	0x3ec2d36f	0.38051936
36	0xbea4ee52	-0.32213074
37	0x3f5f7c2c	0.87298846
38	0x3f1ff664	0.6248534
39	0xbe89a564	-0.26883996
40	0xbe3d2d5b	-0.18474333
41	0x3d25537d	0.040362824
42	0xbeb88e97	-0.36046287
43	0x3ecd3dd3	0.4008623
44	0xbe002b87	-0.12516604
45	0x3c31e2de	0.010857312
46	0x3f9479e0	1.1599693
47	0xbcbfd8ad	-0.023418749
48	0x3c7f542d	0.015584034
49	0x3ee94243	0.45558366
50	0x3f0bace1	0.5456067
51	0x3f4d1adb	0.80119103
52	0x3f83e45a	1.0304062
53	0x3e8b9950	0.27265406
54	0x3ec9300b	0.39294466
55	0x3fc6194c	1.547647
56	0x3f4608c0	0.773571
57	0x3ef22f0a	0.47301513
58	0x3bf4bc12	0.007468709
59	0xbefa9657	-0.48942825
60	0xbd9b4b0b	-0.07582673
61	0x3f45af19	0.772203
62	0x3ea23d4a	0.31687385
63	0xbfa0ea56	-1.2571514
64	0x3d9e9fd5	0.07745329
65	0x3e663fac	0.22485226
66	0x3f861305	1.0474554
67	0x3f0c04d0	0.54694843
68	0x3f3a0cc3	0.7267572
69	0x3fce3f9a	1.611316
70	0x3ecf90b9	0.40540102
71	0xbf967a5e	-1.1756094
72	0x3e8bfda1	0.2734194
73	0x3f4f434e	0.80962074
74	0xbec3f4c2	-0.38272673
75	0xbf1cd65b	-0.6126458
76	0x3e163cb3	0.14671592
77	0xbe54c8c5	-0.20779712
78	0x3ed2ab8b	0.41146502
79	0x3f0a92f1	0.54130465
80	0xbef00d7c	-0.46885288
81	0x3dc7386d	0.09727559
82	0xbf79ba2b	-0.97549695
83	0xbf0fbfee	-0.56152236
84	0xc03d299d	-2.9556649
85	0xbc353614	-0.0110602565
86	0xbd8b7a8c	-0.06810483
87	0xbc84d3b9	-0.016214238
88	0xbf0c4fa2	-0.5480901
89	0x3e2afc12	0.1669772
90	0xbe8de20f	-0.27711532
91	0x3f8794e8	1.0592318
92	0x3ed339b4	0.41254961
93	0xbf66f848	-0.902226
94	0xbe8feca1	-0.2811022
95	0x3fbf811b	1.4961275
96	0x3d965f35	0.07342378
97	0xbdcdc3d8	-0.1004712
98	0x3e21207b	0.15735047
99	0x3f7abb42	0.9794198
100	0xbe090347	-0.13380156
101	0x3e4c4425	0.1994787
102	0x3e811067	0.25207826
103	0x3eec9613	0.46208248
104	0x3e4e952b	0.2017409
105	0xbf928e2b	-1.1449636
106	0x3ddca091	0.10772813
107	0x3e5c8a30	0.2153709
108	0x3f8633f4	1.0484605
109	0xbf1ba6e0	-0.60801506
110	0x3bd26204	0.006420376
111	0xbf5eb316	-0.86992013
112	0x3eab5400	0.33462524
113	0x3fc4c929	1.5373889
114	0xbede3ab7	-0.4340417
115	0x3f26dd43	0.6518137
116	0xbeeb383b	-0.45941338
117	0x3f9d495f	1.2288016
118	0x3e17b15d	0.14813752
119	0x3ed117e9	0.40838555
120	0xbec31d93	-0.381085
121	0x3ea280a7	0.3173878
122	0xbee56df1	-0.4481044
123	0xbf665f1b	-0.8998887
124	0x3f3d1781	0.7386399
125	0x3dc790ef	0.09744441
126	0x3f121ab8	0.5707202
127	0xbe9f653a	-0.31131917

gffs_blocks.0.conv_skip.bias f4 [8]
0	0x3e86acab	0.2630361
1	0x3e6c5d17	0.23082386
2	0x3e32827f	0.17432593
3	0x3e0085d9	0.12551059
4	0x3e7575fc	0.23970789
5	0x3de08136	0.10962145
6	0x3d9109dd	0.070819594
7	0xbdfc802b	-0.123291336

gffs_blocks.0.depth_wise.weight f4 [8, 1, 3, 3]
0	0xbe198da0	-0.14995432
1	0xbf2036a9	-0.62583405
2	0xbdaa7625	-0.083233155
3	0xbc690581	-0.014222504
4	0xbea06d81	-0.31333545
5	0xbc9a015e	-0.01879948
6	0xbd55e1b9	-0.05221722
7	0xbca1b47b	-0.01973938
8	0xbd64120a	-0.055681266
9	0xbeaf4c73	-0.34238014
10	0x3ea45e10	0.32103014
11	0xbc4cd25a	-0.012501324
12	0x3ea8825f	0.32911965
13	0xbcaf0579	-0.021364914
14	0xbe9d3788	-0.3070643
15	0xbb5b969c	-0.0033506518
16	0xbea92c30	-0.33041525
17	0x3ea79361	0.3272963
18	0x3d7c6ef8	0.061629266
19	0x3d5ed881	0.054405693
20	0x3cc78191	0.024353774
21	0x3d7ce81a	0.061744787
22	0xbf0ab620	-0.5418415
23	0x3e01ba25	0.12668665
24	0xbe08d857	-0.13363777
25	0x3fa381b3	1.2773956
26	0xbe3b8681	-0.18313028
27	0xbe90586a	-0.28192455
28	0xb8203336	-3.8194667e-05
29	0xbdb4f5d7	-0.08835953
30	0x3f139e96	0.5766386
31	0x3e291465	0.16511686
32	0x3dfda5d4	0.12385145
33	0xbf30aada	-0.690107
34	0x3f19441d	0.5986956
35	0xbe7b93ee	-0.2456815
36	0xbc2ca4a7	-0.010537303
37	0x3db84e1b	0.089992724
38	0x3cccbd8f	0.024992732
39	0x3e539932	0.20663908
40	0xbfcedab7	-1.6160496
41	0x3e742052	0.23840454
42	0x3db0790c	0.08616838
43	0x3e17f944	0.14841181
44	0xbd1dfb63	-0.03856982
45	0x3e9e7f7a	0.30956632
46	0x3f09e481	0.53864294
47	0x3dd3732c	0.10324702
48	0x3f6ba945	0.9205516
49	0x3e1be8c5	0.15225513
50	0x3e104ae4	0.14091069
51	0xbd7e842d	-0.06213777
52	0x3e4ff88b	0.20309655
53	0x3d2ddd84	0.042447582
54	0xbe0d62de	-0.13807246
55	0x3bbe00d9	0.005798441
56	0xbe368149	-0.17822756
57	0x3de3510e	0.11099444
58	0x3ea36d1c	0.3191918
59	0x3a7ef5f4	0.0009725981
60	0xbe53c15b	-0.20679228
61	0xbefa522e	-0.48890823
62	0x3ed1b563	0.409587
63	0x3debdbc9	0.1151653
64	0x3dca2418	0.098701656
65	0x3c63b4d4	0.013898093
66	0x3e4f7cc0	0.20262432
67	0x3fdcc5ba	1.7247841
68	0xbe57f5db	-0.2108988
69	0xbc10e619	-0.008843922
70	0x3e4a05e4	0.1972881
71	0x3ceb947d	0.028757328

gffs_blocks.0.depth_wise.bias f4 [8]
0	0x3f03e845	0.5152629
1	0x3c88eda5	0.01671488
2	0x3e889d84	0.26682675
3	0xbe1b0539	-0.15138711
4	0x3db8e0a4	0.09027222
5	0xbe9c606d	-0.30542317
6	0x3ef13f7b	0.47118744
7	0x3e835f2c	0.25658548

gffs_blocks.0.fgsm.fusion.0.weight f4 [1, 16, 1, 1]
0	0xbf882db4	-1.0638947
1	0xc044dd7a	-3.0760179
2	0x3fb987e3	1.4494594
3	0xbf1b1371	-0.6057654
4	0x3f3f85c3	0.7481348
5	0x3e109c7c	0.14122194
6	0xbf5b0163	-0.8554899
7	0xbe3083b3	-0.1723774
8	0x405640dc	3.3477087
9	0x3eab1925	0.3341762
10	0x3ecde956	0.40217084
11	0xbcd12e23	-0.025534695
12	0x3e59d98e	0.21274397
13	0xbf764783	-0.9620287
14	0xbdb7047b	-0.089364015
15	0x3efdc8e5	0.49567333

gffs_blocks.0.fgsm.mask_maker.0.weight f4 [16, 1, 3, 3]
0	0x41525a19	13.1469965
1	0xc06f5fc6	-3.7402205
2	0xc0ef0f2a	-7.470601
3	0x41aa6949	21.301409
4	0x41804eb2	16.038425
5	0x414141ec	12.078594
6	0xc0060018	-2.0937557
7	0x414e271c	12.884548
8	0xc054df84	-3.3261423
9	0xc06803de	-3.625236
10	0xbf654fb0	-0.8957472
11	0xc1fbe784	-31.488045
12	0x3fa7c1c6	1.310601
13	0xc1b1ec36	-22.240337
14	0x419ad994	19.35624
15	0xbec4aee4	-0.3841468
16	0x3fc49b33	1.5359863
17	0x408ec6ae	4.461753
18	0xbf0edaf2	-0.55802834
19	0x4038548a	2.8801599
20	0x40ce2ae8	6.4427376
21	0x4163aa4b	14.229075
22	0x41815db7	16.17076
23	0x40fbbb78	7.8666344
24	0x41237bd0	10.217728
25	0x40ea2d2e	7.318015
26	0xc0b479b2	-5.6398554
27	0x40536b30	3.3034172
28	0xc08b74e6	-4.35802
29	0x3fcb9a1b	1.5906404
30	0x3f4d2e2f	0.80148596
31	0x406e6149	3.7246878
32	0x3e904ab0	0.28181982
33	0xbd6d5110	-0.057938635
34	0xbf767210	-0.96267796
35	0x3fa67d74	1.3007035
36	0xbf9fa6dc	-1.2472796
37	0x40c622ac	6.1917324
38	0x40281770	2.6264305
39	0x40e5431b	7.1644416
40	0xc249db74	-50.46431
41	0x417b2e89	15.698861
42	0xc0283383	-2.628144
43	0x4147e6a4	12.493809
44	0x4070a485	3.7600415
45	0x3fcd791d	1.6052586
46	0xc0f64a1d	-7.696547
47	0xc07acb22	-3.9186482
48	0x40be1c76	5.940974
49	0xc138caf7	-11.549552
50	0x3f7b99ee	0.98281753
51	0x40edad32	7.427392
52	0xc2317352	-44.362617
53	0xbf1574bc	-0.5838125
54	0xc0d9647a	-6.793515
55	0x40364ab6	2.84831
56	0xbf3ac49a	-0.7295624
57	0xc187d874	-16.98069
58	0xc2389e4a	-46.15458
59	0x4045b77f	3.0893247
60	0xc16b50e6	-14.707251
61	0x40907d14	4.5152683
62	0x3f1dbfa2	0.61620533
63	0xc013e0c7	-2.3105943
64	0xbd3705c0	-0.044683218
65	0x4046d0e1	3.106499
66	0xc1cc4ef8	-25.538559
67	0xc0b5fdc8	-5.687229
68	0x413f9d00	11.97583
69	0x40048294	2.0704699
70	0xc045a0c8	-3.0879383
71	0x4036d520	2.856758
72	0x401aa986	2.416597
73	0x411985a4	9.595127
74	0x413325b5	11.196706
75	0x402c9b7a	2.6969895
76	0x40f0b07a	7.5215425
77	0x41061328	8.379677
78	0xc07d5c04	-3.9587412
79	0xc202a076	-32.6567
80	0xc1496e7a	-12.589472
81	0x40cc8587	6.3912997
82	0x40f85b45	7.7611413
83	0xc0fedf8c	-7.9647884
84	0xc1ba212e	-23.266201
85	0xc17a88fd	-15.658444
86	0xc09b7c06	-4.8588896
87	0xc0cb3eb1	-6.3514028
88	0xc0675dbb	-3.6150959
89	0x3ffa424c	1.9551482
90	0x400f552e	2.239574
91	0xc1999f69	-19.202837
92	0xbfef0359	-1.8672897
93	0xc148f434	-12.55962
94	0xc230cc72	-44.199654
95	0xc0d29468	-6.580616
96	0x410d88f3	8.845935
97	0x4284c78e	66.389755
98	0x40dd332c	6.9124966
99	0x40e45e2e	7.1364965
100	0xc113a156	-9.226889
101	0x3dc47f00	0.09594536
102	0x40bd379e	5.913039
103	0x417d61cb	15.836375
104	0x41259dee	10.351057
105	0x40860d13	4.189096
106	0x3fd0d265	1.6314207
107	0xbed41c6e	-0.4142794
108	0x40888ebf	4.267425
109	0xc03cf838	-2.95265
110	0x400a6ad2	2.1627698
111	0x40a7791c	5.233534
112	0x40b4c9ea	5.6496477
113	0x4083f514	4.123667
114	0x3f9567b4	1.1672273
115	0x40591b76	3.392301
116	0x3f107078	0.56421614
117	0x413cf667	11.810157
118	0xc04edbad	-3.232158
119	0x406d79d8	3.7105618
120	0x419dba57	19.715986
121	0x40a4d20f	5.150642
122	0xbeb48554	-0.3525797
123	0x411708c4	9.43964
124	0x403b41a6	2.9258819
125	0xc02dbf0e	-2.714786
126	0x41010882	8.064577
127	0x410357f4	8.208973
128	0x415cb478	13.79406
129	0x41880fc6	17.007702
130	0x4172d676	15.177359
131	0xc05390b2	-3.3057065
132	0x3fefaf32	1.872534
133	0x40338fa9	2.8056433
134	0x3fdac4ac	1.709127
135	0xc00fb94c	-2.2456846
136	0x408f8ace	4.485694
137	0xc1c71b21	-24.888247
138	0xc1398614	-11.595234
139	0x40bc82e6	5.890979
140	0xc1fcec66	-31.615429
141	0x40290252	2.6407666
142	0xc080204f	-4.003944
143	0xc18a1f6a	-17.265339

gffs_blocks.0.fgsm.mask_maker.0.bias f4 [16]
0	0xc113fd0f	-9.249282
1	0x41c43ea4	24.530586
2	0xc1cfbbae	-25.96664
3	0x414b8bba	12.721613
4	0x405a4468	3.4104252
5	0x422a644e	42.597954
6	0x4256ff28	53.749176
7	0xbf479b9c	-0.77971816
8	0xbd3d12ee	-0.04616063
9	0x42323c82	44.55909
10	0xbf227512	-0.63459885
11	0xc0f0a88b	-7.520574
12	0xbfdb0e02	-1.711365
13	0xc16b48f4	-14.705311
14	0xc1a06f28	-20.054276
15	0x41e7fe24	28.999092

gffs_blocks.0.fgsm.mask_maker.1.weight f4 [16]
0	0x3fc5efe8	1.5463839
1	0x3fe1a36c	1.7627997
2	0xbd0e436d	-0.03473227
3	0x3e673eab	0.225825
4	0x40925a99	4.5735593
5	0x3f8bc720	1.0920143
6	0x406df06b	3.717799
7	0x3f6fc9be	0.9366721
8	0x401223ad	2.2834275
9	0x3f89cb15	1.0765101
10	0x41131706	9.193121
11	0xbce6948d	-0.028147006
12	0x3f7212aa	0.9455973
13	0x406d710e	3.7100253
14	0x3feb9b72	1.8406813
15	0x3f80aa8b	1.0052046

gffs_blocks.0.ca.ca.1.weight f4 [1, 16, 1, 1]
0	0x3e2f7793	0.17135458
1	0x3fb0d715	1.3815638
2	0x3d25852c	0.040410206
3	0x3f07d25b	0.5305535
4	0xbda45c0e	-0.080253705
5	0x3ce91111	0.02845052
6	0x3e8843d1	0.2661424
7	0x3dfe076d	0.1240376
8	0x3eb7c646	0.35893458
9	0xbe11a3e0	-0.1422267
10	0x3f1683a8	0.5879464
11	0xbf7a6f44	-0.9782603
12	0x3c191512	0.009343402
13	0xbf39480e	-0.7237557
14	0x3e206345	0.15662868
15	0x3dcd3555	0.10019938

gffs_blocks.0.ca.ca.3.weight f4 [16, 1, 1, 1]
0	0x3f4980f6	0.78712404
1	0x3e7dfa55	0.24802525
2	0x3f1b47a2	0.6065618
3	0x3ed88fa6	0.42297095
4	0x3f5614f1	0.83625704
5	0x3eb60584	0.35551083
6	0x3d615a17	0.055017557
7	0x3f052c43	0.52020663
8	0x3e543c46	0.20726117
9	0x3f3bb073	0.73316115
10	0x3f2ecfcd	0.6828583
11	0x3f3c9889	0.7367025
12	0x3e182df0	0.14861274
13	0xbecc60b9	-0.39917544
14	0xbf58f8ac	-0.84754443
15	0xbe39d8cf	-0.18149112

gffs_blocks.0.ca.ca.3.bias f4 [16]
0	0x3f3e3af2	0.74308693
1	0x3f728895	0.9473966
2	0x3f36e644	0.7144511
3	0x3dace607	0.08442312
4	0xbf589a5b	-0.8461053
5	0xbe6005fd	-0.21877284
6	0x3f328090	0.6972742
7	0x3f42c6f2	0.76084816
8	0xbe853926	-0.26020163
9	0xbdc113e4	-0.09427622
10	0x3f6c3ed3	0.9228336
11	0xbeaf4ad4	-0.34236777
12	0xbde54110	-0.1119405
13	0x3ebd7649	0.37004307
14	0x3e08d92a	0.13364092
15	0xbefb83c9	-0.49123982

gffs_blocks.0.prelu.weight f4 [16]
0	0x3df4822e	0.11938892
1	0x3f448a38	0.76773405
2	0xbf2df3b7	-0.67950004
3	0x3f313f5e	0.69237316
4	0x3d61863f	0.055059668
5	0x3ed3bb76	0.4135396
6	0x3e220342	0.15821555
7	0x3e0814ae	0.13289139
8	0x3f2ec9e3	0.68276805
9	0xbf554899	-0.833139
10	0x3ec8b2e4	0.39198983
11	0x3ef7ac57	0.48373672
12	0xbd5fe893	-0.05466516
13	0x3f885e76	1.0653827
14	0xbe7fc2aa	-0.24976602
15	0x3f3a5c56	0.72797143

gffs_blocks.1.conv.weight f4 [8, 16, 3, 3]
0	0x3cc8f2a4	0.024529763
1	0xbd9da59a	-0.076976016
2	0xbd0be78f	-0.03415638
3	0x3e289b44	0.16465479
4	0xbdd173e0	-0.102271795
5	0xbe80acd6	-0.25131863
6	0x3de27d4a	0.11059053
7	0x3ba11460	0.004915759
8	0xbd89c3d7	-0.067268066
9	0xbe260148	-0.16211426
10	0xbc706b90	-0.014674082
11	0xbe60ca12	-0.21952084
12	0x3dc38948	0.09547669
13	0xbeb62ff6	-0.35583466
14	0x3e7f038c	0.24903697
15	0xbcc75f58	-0.024337456
16	0x3c27bedf	0.010238378
17	0xbd843020	-0.064544916
18	0xbe61183f	-0.21981905
19	0xbe36aeca	-0.17840114
20	0xbddd397e	-0.108019814
21	0xbe39dbf0	-0.18150306
22	0xbe1106cd	-0.1416275
23	0xbe69fa27	-0.22849332
24	0xbe70e1a3	-0.23523574
25	0xbed4c884	-0.4155923
26	0xbe81b2f1	-0.25331834
27	0xbd8daa44	-0.06917241
28	0xbc6ec4d0	-0.014573291
29	0x3e703166	0.23456344
30	0xbd8c1c4c	-0.06841335
31	0x3e14f440	0.14546299
32	0x3d07d7e2	0.033164866
33	0xbe6d5396	-0.23176417
34	0x3dccaf91	0.09994424
35	0xbbda760c	-0.0066669043
36	0x3d70962c	0.058736965
37	0xbd3d5a14	-0.046228483
38	0x3e1dc4c6	0.15407094
39	0x3d2fa4ba	0.042881705
40	0x3f005e94	0.50144315
41	0x3d5e6f78	0.054305524
42	0x3d811d28	0.06304389
43	0xbdcf99ca	-0.10136755
44	0xbc10e918	-0.008844636
45	0xbd41cb7a	-0.04731319
46	0xbdb6df04	-0.089292556
47	0xbe4f8fb0	-0.20269656
48	0x3eb59f22	0.3547297
49	0x3e02e59a	0.12782899
50	0xbe928ef1	-0.2862468
51	0xbe32870a	-0.17434326
52	0x3d1c2fd4	0.03813155
53	0xbd9ea76e	-0.077467784
54	0xbe5501ba	-0.2080144
55	0xbe80d96b	-0.25165877
56	0x3c75ab50	0.014994457
57	0xbea313e4	-0.31851113
58	0x3d383f24	0.04498209
59	0x3ebea876	0.372379
60	0x3db2d49f	0.087319605
61	0x3e464cff	0.19365309
62	0x3e474520	0.19459963
63	0x3dbc53b0	0.091956496
64	0x3ea65aa2	0.32491022
65	0x3d610409	0.05493549
66	0xbdd263de	-0.102729544
67	0x3ea0f66e	0.3143801
68	0x3dfd0f16	0.12356393
69	0xbcad6b7a	-0.021169413
70	0x3df91b62	0.12163426
71	0x3dcfadfb	0.10140606
72	0x3dd54e90	0.10415375
73	0xbd35c90e	-0.044381194
74	0xbda5ba5f	-0.08092188
75	0x3e02c4af	0.12770341
76	0xbef3d7b5	-0.4762551
77	0xbe9a74f4	-0.30167353
78	0xbd9564b9	-0.07294602
79	0x3e807f68	0.25097203
80	0x3da597c0	0.08085585
81	0xbea1f004	-0.3162843
82	0x3e27fd69	0.16405262
83	0xbe661834	-0.2247017
84	0x3dbec535	0.09314958
85	0x3e309cac	0.17247266
86	0xba89ad50	-0.0010503922
87	0xbe1cf502	-0.15327838
88	0x3e5e9dbf	0.21739863
89	0xbe6d4806	-0.23172006
90	0xbce58c1a	-0.028020907
91	0x3d6dbaa6	0.05803933
92	0x3d5eaa92	0.054361887
93	0x3d3dedda	0.04636941
94	0xbd776e90	-0.060408175
95	0x3d9b6c83	0.07589056
96	0x3df7e9a5	0.12105111
97	0x3e8c6836	0.27423257
98	0x3d6f600e	0.058441214
99	0xbdf5db08	-0.120046675
100	0xbed08ae8	-0.40730977
101	0xbe89fa76	-0.269489
102	0xbe9368c8	-0.2879088
103	0xbe0f4ff9	-0.13995351
104	0xbe478b42	-0.19486716
105	0xbd6cddea	-0.05782882
106	0xbd8243d6	-0.06360595
107	0x3e0ddeda	0.13854542
108	0xbcebe86c	-0.02879735
109	0xbb0de2f0	-0.0021650158
110	0xbd6bc8b9	-0.05756447
111	0x3d62f31e	0.055407636
112	0x3e290950	0.16507459
113	0x3de608c7	0.11232143
114	0x3d2d4d28	0.04230991
115	0xbd679e1e	-0.056547277
116	0xbe0b4b0c	-0.13602847
117	0x3ee64d26	0.44980735
118	0xbeae5a74	-0.34053385
119	0x3e497bdc	0.19676155
120	0xbdf91430	-0.121620536
121	0x3de8cf71	0.11367691
122	0xbda9587d	-0.08268831
123	0xbd245b5b	-0.040126186
124	0xbe0c4a22	-0.13700154
125	0x3d7c8333	0.06164856
126	0x3cce9c14	0.025220908
127	0xbe2b1883	-0.16708569
128	0xbd37fb2b	-0.044917267
129	0xbd8dc912	-0.06923117
130	0xbed47dec	-0.4150232
131	0xbd90d998	-0.07072753
132	0x3d9c07c0	0.07618666
133	0x3dc7bff0	0.09753406
134	0x3e532dcf	0.20622943
135	0x3d8ec315	0.06970803
136	0xbdf49e0b	-0.11944207
137	0xba4af4c0	-0.0007742159
138	0x3d413cee	0.047177248
139	0xbe31425e	-0.17310473
140	0xbcc7f288	-0.02440764
141	0xbd3f9078	-0.046768636
142	0xbc85bee2	-0.016326372
143	0x3dcb658f	0.0993148
144	0x3d0a7b64	0.03380908
145	0xbd05fb73	-0.032710504
146	0xbe5ed899	-0.21762313
147	0xbe2be320	-0.1678586
148	0x3d47f1dd	0.048814643
149	0xbed8f640	-0.42375374
150	0x3d99d388	0.075110495
151	0xbe250472	-0.16114977
152	0xbe3f295e	-0.18668124
153	0x3e96494b	0.29352793
154	0xbf370d5e	-0.7150477
155	0x3ddd7550	0.10813391
156	0xbf0bdbd6	-0.5463232
157	0x3fa584ba	1.293113
158	0x3ecae269	0.39625862
159	0xbe7c6fb5	-0.24651988
160	0x3ca3c5b0	0.019991726
161	0xbecb02a0	-0.3965044
162	0xbf2044ce	-0.6260499
163	0xbeb3e5a0	-0.35136127
164	0xbe4a1db7	-0.19737898
165	0xbebebc79	-0.37253168
166	0x3f4a5731	0.79039294
167	0xbf0761cd	-0.5288361
168	0xbec70dfa	-0.3887785
169	0xbe8ea8a9	-0.27863052
170	0xbeee891d	-0.46588984
171	0xbea0b70c	-0.31389654
172	0x3c926376	0.017869692
173	0x3e99d177	0.30042621
174	0xbef8e458	-0.48611712
175	0x3f084530	0.5323057
176	0xbc70e646	-0.014703339
177	0xbf35919c	-0.7092531
178	0x3be18160	0.006881878
179	0x3e2203b6	0.15821728
180	0xbd01a83a	-0.031654574
181	0xbe99b64e	-0.300219
182	0x3eabfbc8	0.3359053
183	0x3ea71b50	0.32638025
184	0x3fb76374	1.4327226
185	0xbdc84594	-0.09778896
186	0x3ef18bf2	0.47177082
187	0xbdc39a58	-0.09550923
188	0x3e882482	0.26590353
189	0xbd910544	-0.070810825
190	0x3b991780	0.004671991
191	0xbeda61aa	-0.42652637
192	0x3f868eb5	1.0512301
193	0x3f56c1f1	0.8388968
194	0xbf80fc93	-1.007708
195	0xbf7b6614	-0.98202634
196	0x3f196517	0.59919876
197	0x3e55201a	0.20813027
198	0xbd90000b	-0.07031258
199	0x3eebed5b	0.46079525
200	0x3d02b418	0.031910032
201	0x3f96f36b	1.1793035
202	0x3f3d9784	0.7405932
203	0x3e3076fc	0.17232889
204	0x3e66e668	0.2254883
205	0x3eb62f1c	0.35582817
206	0x3f062e90	0.524148
207	0x3e8bd1ae	0.2730841
208	0xbe8b1574	-0.27164805
209	0x3f0467f5	0.51721126
210	0xbdb8d2e1	-0.09024597
211	0x3f007d5d	0.5019129
212	0x3b6ac1a0	0.0035820976
213	0xbe51f76b	-0.20504539
214	0x3f4876b8	0.7830615
215	0xbea57d64	-0.32322228
216	0x3e31193e	0.17294785
217	0xbf190e08	-0.59787035
218	0xbd97492c	-0.07387003
219	0x39d3f500	0.00040427595
220	0xbf0a4245	-0.5400737
221	0xbf82b739	-1.0212165
222	0xbf930412	-1.1485617
223	0xbe5bcbab	-0.21464412
224	0xbd394cdc	-0.045239314
225	0xbf606d02	-0.8766633
226	0x3f5e8d52	0.8693439
227	0xbe42175e	-0.18954226
228	0x3f0d8636	0.55282915
229	0x3fb5e86a	1.4211552
230	0x3f12d4a5	0.5735572
231	0xbee3375f	-0.44378182
232	0x3f46b9b3	0.77627105
233	0xbf4d5332	-0.8020507
234	0xbd6d16a0	-0.057882905
235	0x3ec4b8c4	0.38422215
236	0x3e328a1a	0.17435494
237	0xbde82e34	-0.113369375
238	0x3ddd6612	0.10810484
239	0x3e8f2cba	0.2796381
240	0x3efd7b34	0.4950806
241	0x3ef83c6c	0.48483598
242	0x3e3deaaf	0.18546556
243	0x3f010706	0.5040134
244	0x3e85f768	0.26165318
245	0xbf3362f4	-0.70072865
246	0x3e59e3a2	0.21278241
247	0x3e4b4098	0.1984886
248	0x3ec73bc9	0.389128
249	0xbe8436d6	-0.25823087
250	0x3ec08b4a	0.3760627
251	0x3f0a7358	0.5408225
252	0xbe0d84f7	-0.13820253
253	0xbe5d556b	-0.21614616
254	0xbe55c66d	-0.20876475
255	0xbd797c56	-0.06090959

gffs_blocks.1.conv.bias f4 [8]
0	0x3f928e73	1.1449722
1	0x3de298b0	0.11064279
2	0x3f8771fb	1.0581659
3	0x3e33bf39	0.17553414
4	0xbf38bdae	-0.7216443
5	0xbe807288	-0.2508738
6	0xbfb3d5a0	-1.4049568
7	0x3d9fbcfa	0.07799716

gffs_blocks.1.conv_skip.weight f4 [8, 16, 1, 1]
0	0xbefba1be	-0.49146837
1	0xbf9f1916	-1.2429531
2	0x3dfc80ab	0.12329229
3	0x3ebdfb5f	0.37105843
4	0x3e431c63	0.19053797
5	0xbea52390	-0.32253695
6	0x3f280aa6	0.6564125
7	0xbe80a878	-0.2512853
8	0xbee8bb64	-0.45455468
9	0x3ed10781	0.40826038
10	0xbe0d0d72	-0.1377466
11	0x3dcb68e5	0.099321164
12	0xbe2121d4	-0.1573556
13	0x3e6e1761	0.23251106
14	0xbd8d90ff	-0.069124214
15	0x3fca1b75	1.5789629
16	0xbea9f0bd	-0.3319148
17	0x3ef0c38d	0.47024193
18	0x3c737f97	0.014861963
19	0xbf7196c2	-0.94370663
20	0x3f392a81	0.7233048
21	0x3f586d38	0.84541655
22	0xbf22ae3d	-0.63547117
23	0xbf02347b	-0.5086133
24	0xbd942a23	-0.072345994
25	0x3f17cb2e	0.592944
26	0x3e6230fc	0.22088999
27	0xbf5650d3	-0.8371708
28	0x3d94968e	0.072552785
29	0xbf6bd218	-0.9211745
30	0xbf504538	-0.8135562
31	0xbd08e69b	-0.033423048
32	0x3e2784e2	0.16359285
33	0xbf6b584f	-0.91931623
34	0xbce3c360	-0.027803123
35	0x3f8467be	1.034416
36	0x3f5d3171	0.86403567
37	0xbeb396e3	-0.35076055
38	0x3ee52198	0.44752192
39	0x3f472af3	0.7779991
40	0xbf2d4ba6	-0.67693555
41	0x3c4ecd83	0.01262224
42	0xbece70ec	-0.40320528
43	0x3e1060d2	0.14099434
44	0x3eae6383	0.34060296
45	0x3e6e81d4	0.23291713
46	0x3eb5392d	0.35395184
47	0x3f8b6017	1.0888699
48	0x3d6e2cb2	0.058148094
49	0xbecf6361	-0.40505508
50	0x3f252971	0.6451636
51	0x3f4fe923	0.81215113
52	0xbeb0ae56	-0.34508008
53	0x3e31e7cb	0.17373578
54	0xbda67337	-0.08127444
55	0xbe631274	-0.22175008
56	0xbd82289f	-0.06355404
57	0x3ef93d58	0.48679614
58	0xbda910f1	-0.082551844
59	0x3e690d54	0.2275899
60	0x3eb2b572	0.34904057
61	0x39729a20	0.00023136334
62	0x3e9c17c6	0.30486888
63	0x3e73d1ca	0.23810497
64	0x3ebdf2e6	0.3709938
65	0x3ef964ad	0.48709622
66	0x3cb9ccb3	0.022680616
67	0x3f1f0115	0.62111026
68	0xbf1baada	-0.60807574
69	0x3f6e3c76	0.93061006
70	0xbe964da1	-0.293561
71	0x3f0538fd	0.5204008
72	0xbd9d3acf	-0.076772325
73	0x3f4864a9	0.78278595
74	0x3e8d2f32	0.2757507
75	0xbe583f44	-0.21117884
76	0xbfc56498	-1.5421324
77	0xbf087be5	-0.5331405
78	0xbf7e5336	-0.9934572
79	0xbf2b0c53	-0.6681568
80	0x3f80657a	1.0030968
81	0x3e97dd8c	0.29661214
82	0xbed65a50	-0.41865778
83	0xbd791d48	-0.06081894
84	0x3e1d6a0f	0.1537249
85	0x3e034025	0.12817438
86	0x3e83f5db	0.2577351
87	0x3f509b4a	0.8148695
88	0x3d138196	0.036012255
89	0x3f1f1877	0.62146705
90	0x3f3950d2	0.72388947
91	0x3ef3f1b2	0.47645336
92	0x3f9102ce	1.1328981
93	0xbeb4da39	-0.3532274
94	0xbf2e5e3f	-0.6811256
95	0x3ede199b	0.4337891
96	0x3fb10392	1.3829215
97	0x3f45ef55	0.77318317
98	0xbf207bbb	-0.626888
99	0xbf83aaaa	-1.0286458
100	0x3ea161bb	0.31519875
101	0xbe860dc0	-0.26182365
102	0x3e7ff94b	0.24997441
103	0x3e3b8e14	0.18315917
104	0x3e99c1d4	0.30030692
105	0xbe8bc9e0	-0.27302456
106	0xbe056030	-0.13024974
107	0xbf9b0696	-1.2111385
108	0x3e28a192	0.16467884
109	0x3e362693	0.17788152
110	0xbdf95b5d	-0.12175629
111	0x3e05fdf8	0.13085163
112	0x3f651e9c	0.8949983
113	0x3f494d83	0.786339
114	0xbf618513	-0.8809368
115	0xbe754c6d	-0.23954935
116	0xbeccd712	-0.40007836
117	0xbe3e0611	-0.18557002
118	0xbe8471d8	-0.25868106
119	0x3f218671	0.63095766
120	0xbe978fb0	-0.29601812
121	0x3db71162	0.089388624
122	0x3f6e2c43	0.9303629
123	0x3eaf0b4e	0.34188312
124	0xbfc15c69	-1.5106326
125	0xbf803510	-1.0016193
126	0x3e3bdab6	0.1834515
127	0xbb9f6ca0	-0.004865244

gffs_blocks.1.conv_skip.bias f4 [8]
0	0x3f41956c	0.75618625
1	0xbe875c53	-0.26437625
2	0xbd8c88f1	-0.06862057
3	0xbe024ab7	-0.12723814
4	0xbe8862a8	-0.2663777
5	0x3d8d473d	0.06898353
6	0xbe95f5c8	-0.2928908
7	0xbdc5fcaa	-0.096673325

gffs_blocks.1.depth_wise.weight f4 [8, 1, 3, 3]
0	0x3d9613fe	0.07328032
1	0x3cbc9c0f	0.023023633
2	0xbae61337	-0.0017553334
3	0x3e352522	0.17689946
4	0x3bf8d58d	0.0075938166
5	0xbbb3995b	-0.005480928
6	0x3f08a706	0.5337986
7	0x3e022131	0.12707974
8	0x3ccf05cd	0.02527132
9	0xbc89c8e2	-0.016819421
10	0xbd6b0eae	-0.057387047
11	0xbd5437da	-0.051811077
12	0x3f0b7872	0.5448066
13	0xbeac1365	-0.33608547
14	0xbb22b35c	-0.0024826145
15	0x3eaf66af	0.3425803
16	0x3f14ff1a	0.58201754
17	0xbd8c7f15	-0.068601765
18	0xbe62ea6e	-0.2215974
19	0xb9e90241	-0.00044442902
20	0x3e42566d	0.18978281
21	0x3bbaa997	0.005696486
22	0x3f17c985	0.5929187
23	0xbd5490fe	-0.051896088
24	0x3e4867af	0.19570802
25	0xbd5058eb	-0.05086605
26	0xbe10c87a	-0.14138976
27	0xbd83249b	-0.06403466
28	0x3e4f258c	0.20229167
29	0x3e37a0a3	0.17932372
30	0x3e940a36	0.2891404
31	0x3d924094	0.071412235
32	0xbe9705ea	-0.294967
33	0x3e0a6233	0.13514023
34	0xbe79a85c	-0.2438063
35	0x3dab5e06	0.08367543
36	0x3c5d90c3	0.013523283
37	0xbd37ef7e	-0.044906132
38	0x3b247594	0.0025094496
39	0xbd8ec556	-0.069712326
40	0xbec294e8	-0.3800423
41	0xbdf8d5e6	-0.12150173
42	0xbe24f1f6	-0.16107926
43	0xbeeb0b14	-0.4590689
44	0xbe360d18	-0.17778432
45	0x3e23b177	0.15985666
46	0x3e47576d	0.19466944
47	0x3f0d455b	0.55183953
48	0x3d91a0a2	0.071107164
49	0xbf0e8648	-0.55673647
50	0x3edb12c7	0.42787763
51	0x3e114ee0	0.14190245
52	0x3d3692da	0.044573642
53	0x3d8800c1	0.06640769
54	0xbebb050b	-0.36527285
55	0x3bd84a84	0.00660068
56	0x3e377f43	0.1791964
57	0xbc2d085a	-0.010561073
58	0x3efebb58	0.49752307
59	0x3b893adc	0.004187925
60	0x3e927360	0.2860365
61	0x3dd02406	0.10163121
62	0xbea88250	-0.3291192
63	0x3b1a8c25	0.0023582068
64	0x3f939ae7	1.1531647
65	0x3d14c33a	0.036318995
66	0xbb9a6eb7	-0.0047129053
67	0x3b9889fc	0.004655121
68	0x3c29cfe3	0.010364505
69	0xbc4cca12	-0.012499349
70	0xbc6245cd	-0.013810587
71	0xba0ddfba	-0.0005412061

gffs_blocks.1.depth_wise.bias f4 [8]
0	0xbf481eb4	-0.7817185
1	0xbbe1946a	-0.0068841474
2	0xbe3ba23d	-0.18323608
3	0xbe3b4df6	-0.18291458
4	0xbbbe1874	-0.005801255
5	0xbd816abd	-0.06319187
6	0x3daef059	0.085419364
7	0xbcc7b8ff	-0.024380205

gffs_blocks.1.fgsm.fusion.0.weight f4 [1, 16, 1, 1]
0	0xbf5bb0c1	-0.8581658
1	0xbf55fc3f	-0.8358802
2	0x3f920c10	1.1409931
3	0xbec7f4de	-0.39054006
4	0x3e5dca88	0.21659291
5	0xbcda76fb	-0.026668062
6	0xbe3e3158	-0.1857351
7	0x3f2b3080	0.6687088
8	0xbd8375cd	-0.06418953
9	0x3f52d0ec	0.8235004
10	0x3f0070fa	0.5017239
11	0x3ea16fc5	0.31530586
12	0x3f131c7e	0.5746535
13	0x3f8330d6	1.0249279
14	0xbb686882	-0.0035462682
15	0x3e9be209	0.3044589

gffs_blocks.1.fgsm.mask_maker.0.weight f4 [16, 1, 3, 3]
0	0xbfa875d0	-1.3160954
1	0x4028d688	2.638094
2	0x40c67121	6.2013097
3	0xc199cd60	-19.22528
4	0xc089294c	-4.286291
5	0x40a305f4	5.0944767
6	0xc084925e	-4.142867
7	0xc0534d23	-3.301583
8	0x40c5b5ee	6.178458
9	0xbe954c01	-0.2915955
10	0x40593cee	3.3943439
11	0x3f92154f	1.1412753
12	0x3f524bbe	0.82146823
13	0x3fc29802	1.5202639
14	0x3f762392	0.96148026
15	0x3eb948b9	0.36188295
16	0x4000f26d	2.0147965
17	0x401af2f5	2.421079
18	0xbec6a87e	-0.38800424
19	0x406081f8	3.5079327
20	0x3f6c16fe	0.92222583
21	0x3f47ad6a	0.77998984
22	0x3fdb8234	1.714911
23	0x3fad3017	1.3530301
24	0x3f35a868	0.7096009
25	0x3f33a82e	0.70178497
26	0x3ffae89e	1.9602239
27	0xc03b3887	-2.9253252
28	0x4023e225	2.5606778
29	0xc0d1abef	-6.552238
30	0x4010cece	2.2626224
31	0xc0daaae3	-6.83336
32	0xc0de68fe	-6.9503164
33	0x415639c2	13.389101
34	0xc08149bc	-4.040251
35	0xc0a56d8a	-5.1696215
36	0x3facf595	1.3512446
37	0x41588660	13.532806
38	0xc119a1b8	-9.601982
39	0x4106cf62	8.425631
40	0xc06bca20	-3.6842117
41	0x3f4dd7e8	0.8040757
42	0xc131d483	-11.114383
43	0xc1040c5c	-8.253017
44	0xc0990de8	-4.7829475
45	0xc004eb7b	-2.0768726
46	0x41b025e0	22.018494
47	0x415c3ffe	13.765623
48	0xc0c45a14	-6.135996
49	0x3f469f98	0.7758727
50	0x416c49e5	14.768041
51	0xbd471640	-0.048605204
52	0xc012d321	-2.2941363
53	0x40632702	3.5492558
54	0xc0271fa2	-2.6113057
55	0x40094876	2.1450477
56	0x412f0ded	10.9409
57	0x409b0f2a	4.845601
58	0x40eb3e85	7.351382
59	0xbf34a562	-0.70564854
60	0x40ec8a49	7.3918805
61	0xc030ea9e	-2.76432
62	0x401f2ead	2.4872239
63	0xbf9f41f1	-1.2441999
64	0xbfc17a02	-1.5115359
65	0xc0111aca	-2.26726
66	0x3f642691	0.8912135
67	0x40fdd210	7.9318924
68	0x3f97a84a	1.1848233
69	0xbe9fc97a	-0.31208402
70	0xbcf35640	-0.029704213
71	0xbf338e93	-0.70139426
72	0xbf1a1f9d	-0.6020449
73	0x40922556	4.5670576
74	0x40a849ec	5.2590237
75	0xbe39e0c0	-0.18152142
76	0x40656e49	3.5848563
77	0xbee57c3e	-0.44821352
78	0x4089d225	4.3069024
79	0x3d33e958	0.043923706
80	0x3df0e1a0	0.117617846
81	0xbf0fa5b1	-0.561122
82	0x41422742	12.134584
83	0xbf52632f	-0.8218259
84	0xbef5240c	-0.47879064
85	0xbef18578	-0.4717214
86	0xbf236eef	-0.63841146
87	0xbeedac60	-0.46420574
88	0xbfd7a801	-1.6848146
89	0xbf9201ee	-1.1406839
90	0x4083611c	4.105604
91	0x40ac7b12	5.390023
92	0x4082fea0	4.093582
93	0x408e1f0c	4.44129
94	0x414ba2f9	12.727288
95	0x3fca6c10	1.5814228
96	0xc1888c5b	-17.068533
97	0xc1d2bf16	-26.343304
98	0xc0e3b159	-7.115399
99	0xc010792e	-2.2573962
100	0x3edcf85e	0.4315824
101	0x4006e96a	2.1079965
102	0xc04dea5c	-3.2174292
103	0x412d953e	10.848936
104	0x4124b3e8	10.293922
105	0xbfc0fb2e	-1.5076654
106	0x3f1ffc34	0.62494206
107	0x3fa761b3	1.307669
108	0x3f93aa10	1.1536274
109	0xc138e755	-11.556478
110	0xc0cc97a6	-6.393512
111	0xc0edb5f5	-7.4284616
112	0xc10bcc3e	-8.737364
113	0xbf92a2c1	-1.1455919
114	0x40d0d8a2	6.5264444
115	0x415d5699	13.833642
116	0x41569198	13.410545
117	0x3f3a77a4	0.7283881
118	0xbf7e1603	-0.9925234
119	0xc0c5aa7a	-6.17706
120	0xc0967bed	-4.7026277
121	0xc1555285	-13.332646
122	0xc02fa773	-2.7445953
123	0xc0f7d106	-7.7442656
124	0x416b8e28	14.722206
125	0x3fa4a2b6	1.2862155
126	0xbebc6222	-0.3679362
127	0x40e3b85d	7.1162553
128	0x40ea2352	7.3168116
129	0xc023b12a	-2.5576882
130	0x40bb67cf	5.856422
131	0x40880a1a	4.251233
132	0x40903ae0	4.507187
133	0xc13a4ded	-11.644025
134	0xc1706d01	-15.026612
135	0xbf6a81ee	-0.91604507
136	0x40ec0c5a	7.3765078
137	0xc0d36dc8	-6.607151
138	0xc0c62cda	-6.192975
139	0x40248aba	2.5709672
140	0x4128bae6	10.5456295
141	0xc112fb69	-9.186379
142	0xc14ff023	-12.996127
143	0xc00496d8	-2.0717068

gffs_blocks.1.fgsm.mask_maker.0.bias f4 [16]
0	0xc13f8e8f	-11.972304
1	0x41886f27	17.054274
2	0x41804ae0	16.03656
3	0xc0b29384	-5.5805073
4	0xbf69132a	-0.9104487
5	0x407e98d4	3.978078
6	0x414d9fa0	12.851471
7	0xc15c5ab3	-13.772143
8	0x419a2493	19.267859
9	0x41ecd5a1	29.604311
10	0xc030a174	-2.7598543
11	0x40f139ea	7.5383196
12	0xbfb40391	-1.4063588
13	0xc0a69774	-5.205988
14	0xc12ddb77	-10.86608
15	0xc15903ae	-13.563398

gffs_blocks.1.fgsm.mask_maker.1.weight f4 [16]
0	0x3f1a7c43	0.6034586
1	0x3d925afa	0.07146259
2	0x3e6baf95	0.23016198
3	0x3fb66338	1.4249029
4	0x40825705	4.0731225
5	0x4002ae5d	2.0418923
6	0x3f38ca93	0.72184104
7	0x3fa1d17a	1.2642052
8	0xbce8ca13	-0.028416669
9	0x3ed916d8	0.4240024
10	0x400d7259	2.2101042
11	0xbe6a438f	-0.22877334
12	0x3fdee24a	1.7412808
13	0x3fc603fe	1.5469968
14	0x3f536483	0.82575244
15	0x3fa3f087	1.2807778

gffs_blocks.1.ca.ca.1.weight f4 [1, 16, 1, 1]
0	0x3d21e62d	0.039526153
1	0xbe417a1d	-0.18894239
2	0xbe49fc6a	-0.19725195
3	0xbfcb00ee	-1.5859659
4	0x3e13e6f1	0.14443566
5	0x3f8dfe8b	1.1093305
6	0xbee4f8e4	-0.44721138
7	0xbf157fca	-0.58398116
8	0xbe6f31df	-0.23358868
9	0xbe0cd5e0	-0.13753462
10	0xbe0f1542	-0.13972953
11	0xbf3c6137	-0.7358584
12	0x3f820a36	1.0159366
13	0x3f826986	1.0188453
14	0xbc608e00	-0.01370573
15	0x3ce274bf	0.02764356

gffs_blocks.1.ca.ca.3.weight f4 [16, 1, 1, 1]
0	0x3df233a2	0.118262544
1	0x3e11cf7d	0.14239307
2	0x3fe9aa78	1.8255148
3	0x3f73b1f0	0.95193386
4	0x3f586047	0.8452191
5	0x3d89e619	0.06733341
6	0x3eecec94	0.46274245
7	0x3f6adbed	0.9174183
8	0xbc8078e7	-0.01568265
9	0xbee84122	-0.45362192
10	0x3f0e870f	0.55674833
11	0x3f23f685	0.64048034
12	0x401c584f	2.44289
13	0x3dd92d91	0.10604394
14	0x3e07ff95	0.1328109
15	0x3ee7107b	0.4512976

gffs_blocks.1.ca.ca.3.bias f4 [16]
0	0x3f01bd5c	0.50679564
1	0xbf4a7f28	-0.79100275
2	0x3ffe2e3d	1.9857861
3	0xbf6dff42	-0.9296762
4	0xbf94af12	-1.1615927
5	0xbf9bd040	-1.2172928
6	0xbfa5d0c0	-1.295433
7	0xbeb6aab0	-0.356771
8	0x3ec3f737	0.38274547
9	0x3e6688c6	0.22513112
10	0x3d9368f9	0.07197756
11	0xbe69fa5f	-0.22849415
12	0xbf4148a1	-0.7550145
13	0xbfd6aa6f	-1.6770762
14	0xbf6810f7	-0.90650886
15	0xbf0f8c1d	-0.5607317

gffs_blocks.1.prelu.weight f4 [16]
0	0x3f4f29d1	0.8092318
1	0x3f80b0d4	1.0053964
2	0x3dd1be6d	0.10241399
3	0x3e4a7d2a	0.19774309
4	0x3db398d9	0.08769388
5	0x3eeceb3f	0.4627323
6	0x3f787cc0	0.97065353
7	0x3e930518	0.28714824
8	0xbd256ab2	-0.040384956
9	0x3cf95855	0.030437628
10	0x3de430f3	0.11142149
11	0xbda24ef4	-0.07925215
12	0x3dff6d5f	0.12472033
13	0x3f5c0d51	0.8595782
14	0xbd6f2900	-0.05838871
15	0x3cdb6ef3	0.026786303
